exp-7/experiment-6-5k.pth (torch_old, 1386 bytes, 4 tensors)

fc1.weight f4 [16, 4]
0	0xbfdabec0	-1.7089462
1	0xbe8b209b	-0.27173313
2	0xbe1626c4	-0.14663225
3	0xbcdbb9c8	-0.026821986
4	0x3fb4efdd	1.41357
5	0xbf9cd999	-1.2253906
6	0x3da9572a	0.08268578
7	0xbd83c7cb	-0.06434592
8	0xbf9ab5fc	-1.2086787
9	0xbfa02160	-1.2510185
10	0xbd49fa08	-0.049310714
11	0xbd744d6c	-0.059644148
12	0x3de8a9c6	0.11360507
13	0x3ef17012	0.47155815
14	0x3f1d79e2	0.61514103
15	0xbea21ecb	-0.31664118
16	0x3fbf86bd	1.4962994
17	0x3cffab51	0.03120962
18	0x3efd27d1	0.4944444
19	0xbea544d9	-0.3227909
20	0x3f6e9fe5	0.9321273
21	0xbf905b3e	-1.1277845
22	0xbca393cb	-0.019967934
23	0xbf1b758d	-0.60726243
24	0x3f5a79e1	0.8534222
25	0x4006462c	2.098033
26	0xbb06f886	-0.002059491
27	0x3e14ddfe	0.14537808
28	0xbfca3c33	-1.5799621
29	0x3f859103	1.0434879
30	0xbe50afb1	-0.20379521
31	0xbdb4321c	-0.0879862
32	0xbf54b472	-0.8308784
33	0xbf15ddd5	-0.58541614
34	0xbef3874c	-0.4756416
35	0xbd96823e	-0.073490605
36	0x3e219a20	0.1578145
37	0xbdc97d9a	-0.0983841
38	0x3e888ad7	0.26668426
39	0xbf40bf0e	-0.75291526
40	0xbf901d1e	-1.1258886
41	0xbf8b9ef8	-1.0907888
42	0x3e0e8973	0.1391962
43	0xbee273d6	-0.44229
44	0xbf9d4479	-1.2286521
45	0xbf2b2533	-0.66853637
46	0xbd17c048	-0.037048608
47	0xbda3baab	-0.079945885
48	0x3e23c8ab	0.15994518
49	0xbf73ac89	-0.9518514
50	0x3d360612	0.044439383
51	0x3f047506	0.51741064
52	0x3fc0ff30	1.5077877
53	0xbdd7edb3	-0.105433844
54	0x3f014da6	0.5050911
55	0xbe686708	-0.22695553
56	0x3fbbebe6	1.4681365
57	0xbf994253	-1.1973366
58	0x3d7c19ee	0.061548166
59	0xbe02c903	-0.12771992
60	0x3f837717	1.0270718
61	0xbf211d77	-0.62935585
62	0xbdda583c	-0.106613606
63	0xbe0e04b9	-0.13868989

fc1.bias f4 [16]
0	0x3e8e5011	0.2779546
1	0x3f68bebf	0.90916055
2	0x3f71ad1e	0.9440478
3	0xbea255e1	-0.31706145
4	0x3efe0f76	0.4962117
5	0x3f3f0b3a	0.74626505
6	0x3fd097c7	1.6296319
7	0x3f6b5708	0.91929674
8	0x3ef21101	0.47278598
9	0x3e8bb44a	0.27285987
10	0x3f804869	1.0022098
11	0x3f15c52e	0.58504
12	0xbf0069ae	-0.50161254
13	0x3f01cc16	0.50702035
14	0x3f6093d3	0.8772556
15	0x3f0836ff	0.5320892

fc2.weight f4 [4, 16]
0	0xbe897c7a	-0.2685278
1	0x3f2edfbc	0.6831014
2	0xbf83348d	-1.0250412
3	0xbd5f1702	-0.0544653
4	0x3eced877	0.40399525
5	0x3e2ad86e	0.16684124
6	0x3b2d6368	0.0026456956
7	0xbf692c6f	-0.91083425
8	0xbed9b019	-0.42517164
9	0xbe095071	-0.13409592
10	0xbf24bdbf	-0.6435203
11	0xbec5bd75	-0.38621107
12	0xbc5923b2	-0.013253139
13	0x3e960f85	0.29308715
14	0x3ed6d41e	0.41958708
15	0x3eafd564	0.34342492
16	0x3f3e39f0	0.74307156
17	0xbf91433f	-1.1348647
18	0x3f466aaf	0.77506536
19	0x3e866e1f	0.2625589
20	0xbef0ae7b	-0.47008118
21	0xbec96c09	-0.39340237
22	0xbeff570e	-0.49871105
23	0x3f1c0627	0.6094689
24	0x3e96c5bf	0.29447743
25	0xbead974f	-0.33904502
26	0x3ed1ed45	0.41001335
27	0x3ea79bd6	0.3273608
28	0xbd109001	-0.035293583
29	0xbf2d93ba	-0.6780354
30	0xbef565bc	-0.4792918
31	0xbe254d59	-0.16142787
32	0xbe0ce9e6	-0.137611
33	0xbf7be9b6	-0.9840349
34	0xbf531084	-0.82447076
35	0x3e329ec6	0.1744338
36	0x3d6196c8	0.055075437
37	0xbf1c532f	-0.6106443
38	0x3f7b8fe5	0.9826644
39	0x3ead5d7f	0.33860394
40	0xbe840ec7	-0.25792524
41	0x3d4a9ddc	0.049466953
42	0xbe8c859b	-0.27445683
43	0xbed4b3c8	-0.41543412
44	0xbe23e19b	-0.1600403
45	0xbe4cd1a8	-0.20001853
46	0xbf1fcbd8	-0.62420416
47	0xbe457811	-0.19284083
48	0x3d0dbd81	0.034604553
49	0x3eeb00b8	0.45898986
50	0x3f12d5cc	0.5735748
51	0xbf3edbbe	-0.7455405
52	0x3cc3ad9d	0.023886496
53	0x3ee6061d	0.4492654
54	0xbfc115fc	-1.5084834
55	0xbf322af9	-0.6959682
56	0x3e07b5af	0.132529
57	0x3e7b3f3e	0.24535844
58	0x3eeb8eef	0.46007487
59	0xbc9b0ba0	-0.018926442
60	0x3efbf311	0.49208882
61	0xbe5a232f	-0.21302484
62	0x3e44f4f1	0.19234063
63	0x3e02cde2	0.1277385

fc2.bias f4 [4]
0	0x3bce5e3b	0.0062978542
1	0xbc4cd03b	-0.012500818
2	0x3ef03b1b	0.46920094
3	0x3de2037e	0.11035822
