exp-7/experiment-7-10k.pth (torch_old, 1770 bytes, 4 tensors)

fc1.weight f4 [16, 10]
0	0xbe12fdf0	-0.14354682
1	0x3f210bed	0.6290882
2	0xbe1b6f9e	-0.15179297
3	0xbdab8238	-0.08374447
4	0x3e252bef	0.1613004
5	0xbe81799f	-0.25288102
6	0x3a8c83c0	0.0010720417
7	0xbdd4aa9f	-0.10384106
8	0xbd10ca3b	-0.035349112
9	0xbe9d60f5	-0.30738035
10	0x3fd0be27	1.630803
11	0x3ff0059b	1.8751711
12	0xbbf32323	-0.00741996
13	0xbc90cb8d	-0.017675186
14	0x3dbf001b	0.09326192
15	0x3dc5c285	0.09656242
16	0xbc2cbcab	-0.010543029
17	0xbd1dda26	-0.03853812
18	0xbd405ed6	-0.046965443
19	0xbc5ce29d	-0.013481763
20	0x3d11f8bc	0.035637602
21	0xbfd7e1ce	-1.6865785
22	0xbe021fb5	-0.12707408
23	0xbbd65e6b	-0.006542017
24	0x3e26465f	0.16237782
25	0xbe405e07	-0.18785869
26	0x3daef05c	0.08541939
27	0xbe26ba34	-0.16281968
28	0xbd9f15a8	-0.077678025
29	0xbe6095f8	-0.21932209
30	0xbfca1be5	-1.5789763
31	0x3f792195	0.9731687
32	0x3c962a26	0.018330645
33	0xb9a05675	-0.00030581994
34	0xbe806007	-0.25073263
35	0xbd1fa5e8	-0.03897658
36	0xbb9a8cce	-0.0047164923
37	0x3cd26314	0.02568201
38	0x3da02581	0.07819653
39	0xbd2a1b74	-0.041530088
40	0xbf207d4f	-0.62691206
41	0xbf2d0a8c	-0.6759422
42	0xbe362bb7	-0.17790113
43	0xbdf52725	-0.11970357
44	0xbe8c7426	-0.27432364
45	0x3e82461a	0.25444108
46	0xbda01824	-0.078171045
47	0x3ecc723e	0.3993091
48	0x3e2c32ef	0.16816305
49	0x3df4d607	0.11954885
50	0xbfc9eb76	-1.5774982
51	0xbf816d65	-1.011151
52	0xbc074c01	-0.008257867
53	0x3dd975f2	0.106181994
54	0xbead35a5	-0.3382999
55	0x3c7c0fce	0.0153846275
56	0xbd6970ca	-0.05699233
57	0x3e3ffb52	0.18748215
58	0x3d47a63c	0.048742518
59	0x3de9b9a4	0.11412361
60	0x3f0cab16	0.54948556
61	0x3fe889f6	1.8167102
62	0xbc67224c	-0.014107298
63	0x3b4106d0	0.0029453523
64	0xbc8bba8b	-0.017056724
65	0x3eb27e0b	0.34861788
66	0x3bc544c1	0.006020159
67	0x3e5ea885	0.21743973
68	0x3ceef681	0.029170277
69	0xbc0f9646	-0.008763855
70	0x3fe127ee	1.759031
71	0xbe7b2409	-0.24525465
72	0xbc830f3c	-0.015998475
73	0x3e1b5f58	0.1517309
74	0x3e5172af	0.20453905
75	0x3c5ef804	0.013608936
76	0x3e2092fb	0.15681069
77	0x3ccf73fd	0.025323862
78	0x3e984601	0.2974091
79	0x3bb46e19	0.0055062887
80	0x3f8585a9	1.0431415
81	0x3e642d7d	0.22282977
82	0x3e2966e6	0.16543159
83	0xbce8b248	-0.028405324
84	0x3e6818e2	0.22665742
85	0xbd9892b5	-0.07449857
86	0x3b5688ba	0.0032735304
87	0xbc959d39	-0.018263446
88	0x3c6bbe27	0.014388598
89	0xbe15d1db	-0.14630835
90	0xbfc78afb	-1.5589288
91	0x3fe66c80	1.8001862
92	0xbc26a25c	-0.010170545
93	0xbc217cd5	-0.009856422
94	0xbde32ad2	-0.11092152
95	0x3e09ec09	0.13468947
96	0x3c134b44	0.008990113
97	0xbcda27a7	-0.026630236
98	0x3d6ced4a	0.057843484
99	0xbc21965c	-0.009862509
100	0xbfe87606	-1.8161018
101	0x3f3f7139	0.7478214
102	0x3dd3b656	0.10337512
103	0xbd916d1d	-0.0710089
104	0xbeb23781	-0.3480797
105	0x3e1209aa	0.14261499
106	0xbcb266ec	-0.021777593
107	0xbda34257	-0.07971638
108	0xbe1559a8	-0.14584982
109	0xbe3fb121	-0.18719913
110	0x3f4889af	0.7833509
111	0xbfe20628	-1.7658129
112	0x3e03306b	0.12811439
113	0xbdb15777	-0.08659261
114	0xbcc306d9	-0.023806976
115	0xbe802efd	-0.2503585
116	0xbcdc130b	-0.02686455
117	0x3a4e6289	0.0007872959
118	0xbd67e94c	-0.056618974
119	0xbceee62b	-0.029162487
120	0xbf574aae	-0.8409833
121	0xbf8533ac	-1.0406394
122	0xbdafa49b	-0.08576318
123	0x3d87ff83	0.06640532
124	0xbcd7f144	-0.026360162
125	0xbdd00bee	-0.101585254
126	0xbe8597d5	-0.260924
127	0xbd35d26e	-0.044390135
128	0x3e688a19	0.2270893
129	0xbdef045b	-0.116707526
130	0x3fbc414b	1.4707426
131	0x3f146ec4	0.57981515
132	0xbca47d84	-0.020079382
133	0xbb8f3ce8	-0.0043712743
134	0x3ea7952c	0.32730997
135	0x3ed59fa9	0.41723374
136	0xbe940928	-0.28913236
137	0x3cb5a828	0.02217491
138	0x3e2fc35f	0.17164372
139	0x3dcd39ff	0.100208275
140	0xbfb8fece	-1.445276
141	0x3d80d52e	0.06290661
142	0x3ce8df48	0.028426781
143	0xbc17e066	-0.009269809
144	0x3ebcdc01	0.368866
145	0x3b0a9a00	0.002114892
146	0x3e9319c0	0.28730583
147	0x3c1ba54e	0.009499861
148	0x3e22a3bd	0.15882774
149	0xbd95d9a3	-0.073169015
150	0x3fc7ada7	1.559987
151	0x3d18c84d	0.037300397
152	0xbe3f3817	-0.1867374
153	0x3b8ad463	0.0042367443
154	0xbe5a647a	-0.21327391
155	0xbb00f0e2	-0.0019674827
156	0xbceb591c	-0.028729014
157	0x3eaebe3f	0.3412952
158	0xbdd95c49	-0.10613305
159	0xbcc211aa	-0.023690064

fc1.bias f4 [16]
0	0xbe8a16a1	-0.2697039
1	0x3f9a78bc	1.2068095
2	0x3f7dd081	0.99146277
3	0x3f2d69d2	0.67739594
4	0x3ea25833	0.31707916
5	0x3f6d117c	0.92604804
6	0x3ed5dd61	0.4177046
7	0x3f6b3540	0.9187813
8	0x3e72aea6	0.23699436
9	0x3f876f17	1.0580777
10	0x3f2bff65	0.67186576
11	0x3f89c709	1.0763866
12	0x3f2b7e18	0.6698928
13	0x3edd67fd	0.432434
14	0xbdfadb2d	-0.12248836
15	0xbcf14b55	-0.029454866

fc2.weight f4 [4, 16]
0	0xbe92c600	-0.28666687
1	0x3f75f4a0	0.96076393
2	0xbe36a722	-0.17837194
3	0xbf832488	-1.0245523
4	0xbea7cd12	-0.32773644
5	0xbf18a334	-0.5962403
6	0x3e54f311	0.20795847
7	0x3f004cbd	0.50117093
8	0x3ed007e6	0.40631026
9	0xbf67efd8	-0.9060035
10	0xbf428c27	-0.75995106
11	0x3e59c3b2	0.21266058
12	0xbe0a2e12	-0.13494137
13	0x3eff05f8	0.4980924
14	0xbe735f98	-0.23766935
15	0x3f144e14	0.5793164
16	0xbd93ad51	-0.07210792
17	0xbf88e197	-1.0693845
18	0xbe89a354	-0.26882422
19	0x3f582e11	0.8444529
20	0x3e310a0e	0.17288992
21	0x3f197343	0.599415
22	0xbe6afce5	-0.22948034
23	0xbf41436f	-0.7549352
24	0xbecef3a9	-0.40420273
25	0x3f33495e	0.70033824
26	0x3f2657d8	0.6497779
27	0xbed11e5f	-0.40843484
28	0x3ecd1915	0.400582
29	0xbf49ac86	-0.78778875
30	0x3ee9e770	0.45684385
31	0xbe1ca7ad	-0.15298338
32	0x3eb0c12c	0.34522378
33	0x3f680346	0.90629995
34	0xbf5bcbf3	-0.85858077
35	0x3ee538b9	0.44769838
36	0xbd133fdd	-0.035949577
37	0xbecf843f	-0.40530583
38	0x3f246212	0.64212143
39	0xbe2217dc	-0.15829414
40	0x3d98693d	0.074419476
41	0x3f6355a4	0.8880255
42	0x3e34d554	0.17659503
43	0xbf8aa546	-1.0831687
44	0xbec64bee	-0.38729805
45	0x3e0ea5c2	0.13930419
46	0xbe6d9975	-0.2320307
47	0xbea8e43a	-0.32986623
48	0xbe35671f	-0.17715119
49	0xbf920c3c	-1.1409984
50	0x3f2bab5d	0.67058355
51	0xbe677212	-0.22602108
52	0x3eb2bf30	0.3491149
53	0x3f06e54f	0.5269365
54	0xbf55b3f9	-0.8347774
55	0x3e076706	0.13222894
56	0xbcb56bbb	-0.022146096
57	0xbf91288a	-1.1340497
58	0xbeb27ed6	-0.34862393
59	0x3f61d826	0.8822044
60	0x3edfcfbd	0.4371318
61	0xbe94cccc	-0.29062498
62	0xbe6dc1b0	-0.23218417
63	0xbe41d2f0	-0.18928123

fc2.bias f4 [4]
0	0x3d450452	0.048099823
1	0x3d2d51af	0.042314228
2	0xbeee7648	-0.46574616
3	0x3e835323	0.25649366
