exp-7/experiment-7-5k.pth (torch_old, 1770 bytes, 4 tensors)

fc1.weight f4 [16, 10]
00000000: c657 b2bf 4655 af3f df98 c8bd 69de c23d
00000010: bf3a 09bc 33b0 5f3d 0222 db3c c93d 1b3d
00000020: 4be0 f23b 89b9 993d 691d 5b3f fabb 9bbf
00000030: 58a2 a73c c0e8 eabd a3c4 e13c df92 a8bc
00000040: db09 33bd 1f8c 1bbd fb5d 5e3d 9964 093d
00000050: af83 823f a31d 893f dc0d e43d 6a1c 193d
00000060: bdf8 16bd 2ea6 393c 3f2a 953d 493e 363d
00000070: b978 923d 0569 09bd bde8 903f b0b4 863f
00000080: 6848 833d e259 963d fb25 21bb 39a4 52ba
00000090: 4c9d 7bbd 058c a2bb e688 4fbd 5143 163e
000000a0: fb0a 91bf cb71 923f 1a1f 9fbd b576 8e3d
000000b0: 394e 40bd 1c80 70bc 3a0a bb3b dc5f b4bc
000000c0: 083d 303c d3ba 99bd 301b c0bf f285 65bf
000000d0: 4d30 bebd 2ce4 73bd 1b74 25bd 9539 9ebb
000000e0: ac01 c73c ac9c 753d be03 d23b e873 4d38
000000f0: 60ee 1abf db3e 893e a68b 393d 67db 863c
00000100: 5c56 7a3e 197c 21be aaf8 90be 2592 13bd
00000110: d593 553e 7c6a 423d 4880 343f 6d01 7abe
00000120: 33a9 d63d c3d3 153e 2b57 9a3d 272b a63d
00000130: 51b8 94bd 78e0 20be f421 cdbb 581a 1cbd
00000140: 59c7 54be 4e02 3dbe d04b 50bd 05a3 b6bd
00000150: 8baa 8f3e 729e 343d 0325 103e fdca 69be
00000160: fc2b 9cbd 6e42 9a3e e3a9 e53d 753a 87bf
00000170: c414 1fbe 2488 99be 8569 96bd 4dfd 1a3e
00000180: 7a9a 93bd e056 7a3e ceb3 ecbd 6462 f23d
00000190: 8fb8 4ebf 5d3b 07be cb7b c7be c84e 52be
000001a0: accd 20be 10f8 c23d b600 c63c f0b5 0a3d
000001b0: 2277 19be 027b 81bd 1684 403f 1fc7 10be
000001c0: 0a40 9a3d e189 2abc a91d 763e dc7a 01be
000001d0: b4ab 4e3e a089 69be 22be 8e3d 81dd 7f3c
000001e0: e916 143f 3b77 26bf d0b9 983e b689 f5bc
000001f0: b6d0 39be 6dc6 a13d a5f4 263e 60b7 be3d
00000200: 8041 a1be d46f dbbb 403d 033f 42eb 543f
00000210: cb64 98be 317a 78be f4ac a5bd 3ef0 ef3c
00000220: a07e 16be 5f9d 6cbe f0e1 89be edb9 81be
00000230: 4cb3 7dbf 5ae4 8fbf a917 47bd f38e a4bd
00000240: 47cb c53c 6b88 373b 828a f0bc 4880 09be
00000250: 8927 023d 9220 4f3c c25f 073f 38fa 01bf
00000260: 4306 55bc 2f16 4fbe 43be b8bd 85c1 4dbc
00000270: 2a22 8abd f890 4abd 2d1e 153e c595 e63c
-1.3933036 1.3697898 -0.09794783 0.095150776 -0.008375823 0.054611396 0.026749615 0.03790072
0.0074119917 0.07506091 0.8559175 -1.2166741 0.020463154 -0.11470175 0.027559584 -0.020577846
-0.04371057 -0.037975427 0.054288846 0.033543203 1.0196437 1.071217 0.11135456 0.037380613
-0.03685831 0.011331124 0.072834484 0.044492994 0.07151932 -0.03354742 1.1321026 1.0523891
0.06410295 0.073413625 -0.0024589289 -0.00080353353 -0.061429307 -0.0049605393 -0.050667666 0.14674117
-1.1331476 1.1440977 -0.07769604 0.06956235 -0.0469496 -0.014678981 0.005708006 -0.022018366
0.0107567385 -0.07506337 -1.5008297 -0.8965751 -0.092865564 -0.059543774 -0.04039393 -0.0048286417
0.02429279 0.059963867 0.0064091375 4.8983755e-05 -0.6051998 0.26805767 0.045299195 0.016462041
0.24447006 -0.15769996 -0.28314716 -0.036028046 0.20857175 0.047464833 0.7050824 -0.24414606
0.10481491 0.14631562 0.07536157 0.081136994 -0.07261718 -0.15710628 -0.006260151 -0.03811106
-0.2077917 -0.1845791 -0.05085355 -0.08917812 0.280598 0.044096418 0.14076619 -0.2283134
-0.07625577 0.30128807 0.11214044 -1.0564715 -0.15535265 -0.2998668 -0.07344345 0.15135689
-0.072071984 0.24447203 -0.115577325 0.11835173 -0.80750364 -0.13206239 -0.38961634 -0.20537865
-0.15703458 0.095199704 0.02417026 0.033864915 -0.14986852 -0.0632229 0.7520155 -0.14138459
0.07531746 -0.010408849 0.24034752 -0.12644523 0.20182687 -0.22806406 0.06969859 0.0156167755
0.5784746 -0.6502568 0.29829264 -0.029972892 -0.18146023 0.07899175 0.16304262 0.0931232
-0.31495285 -0.0066966806 0.51265335 0.83171475 -0.297644 -0.24265362 -0.08089629 0.029289361
-0.14696741 -0.23106907 -0.2693019 -0.25337163 -0.9910171 -1.1241562 -0.04860655 -0.08035078
0.024144782 0.0028004895 -0.02936292 -0.13427842 0.031775985 0.012642043 0.5288049 -0.5077243
-0.013001981 -0.20223306 -0.090206645 -0.012558346 -0.067447975 -0.04945466 0.14562292 0.028147588

fc1.bias f4 [16]
00000000: 456c 533f 7c9d 773f bf9d 573f 4da8 703f
00000010: 97f4 493f 8435 4d3f 8aa4 d2bd a3ec f63e
00000020: a1a5 8ebe 991f 483e bd24 793e baf9 eb3e
00000030: de95 993e 27e5 27be d931 6f3f 917a b93e
0.8258708 0.9672468 0.84225076 0.94006807 0.7888884 0.80159783 -0.102852896 0.48227414
-0.2786074 0.19543304 0.24330421 0.46088964 0.29997152 -0.16396008 0.93435436 0.36226323

fc2.weight f4 [4, 16]
00000000: 4b06 80bf f436 803e 742a 0b3f 5e21 393f
00000010: 8f57 55bf 9fb5 3cbf b5e4 20bd d134 393e
00000020: 1f57 0dbe efd3 1b3d 220a debd e282 d03e
00000030: 134c cd3e edcf 993d 5703 07bf 2337 883e
00000040: 06d3 263f 5603 00bf a04e d9be 9523 3abf
00000050: d78f de3e 58a7 343f 1c51 063e e418 e3be
00000060: b091 743e e852 43bd 5e54 ce3e f57e b7be
00000070: 5dc4 32be 3fba 49be b93a fa3e 137d 95be
00000080: 4f25 2c3f 9605 73bf f69f ae3e 4272 ed3e
00000090: d757 203f d550 2dbf cc84 683d 3203 edbd
000000a0: dc07 f93d 306b 81be 4c59 13be 2c40 9cbd
000000b0: 8caf 41be b336 2b3e 53f5 4cbf 5fd1 51be
000000c0: ad7b 93bf 0f32 0b3f 3839 01bf cee0 35bf
000000d0: 2997 15bf a58a de3e 60c5 86be f670 823c
000000e0: fffc 4e3e 5874 c33e 7f57 e9bc 0a98 013c
000000f0: eda1 463e e7fb 0cbe 75e2 3b3f f292 b73e
-1.000192 0.25041926 0.54361653 0.7231654 -0.8333673 -0.7371463 -0.039280612 0.18086554
-0.13802765 0.038043913 -0.108417764 0.40724856 0.40097103 0.07510362 -0.5273947 0.26604566
0.65165746 -0.5000509 -0.424428 -0.72710544 0.43469116 0.70567846 0.13116878 -0.44354928
0.238837 -0.047686487 0.40298742 -0.35839048 -0.17457719 -0.19699953 0.48872927 -0.29196987
0.6724443 -0.949304 0.34106416 0.46376234 0.6263403 -0.67701465 0.05676727 -0.11572875
0.12159702 -0.2527709 -0.14389533 -0.07629427 -0.18914622 0.16720085 -0.80061835 -0.20490025
-1.1522118 0.5437326 -0.50477934 -0.7104615 -0.5843378 0.43465152 -0.2632246 0.015923005
0.20213698 0.381747 -0.028484104 0.007909784 0.19397707 -0.13767968 0.7339242 0.35854298

fc2.bias f4 [4]
00000000: 0b23 183e 9542 2bbe e9f0 f83d 3cac 493e
0.14857118 -0.16724618 0.12155325 0.19694608
