experiment-1-5k.pth (torch_old, 1642 bytes, 4 tensors)

fc1.weight f4 [16, 8]
000000 8f 62 18 3f 64 b1 3a bf cf 0c 93 3e ce 2d b6 be
       0.5952539 -0.72926927 0.2872071 -0.3558182
000010 85 49 36 3e 88 f9 f8 3d bf 11 67 3e 61 d9 b9 3e
       0.17801483 0.12156969 0.22565363 0.3629866
000020 f4 a2 db be d8 cb 7d be 73 31 fe 3e bc b1 40 3f
       -0.4289776 -0.24784791 0.49647102 0.752712
000030 a1 30 9e be 93 99 1f bd 69 c6 e6 3e 0b 8b 3c 3f
       -0.30896476 -0.03896482 0.4507325 0.7364966
000040 1d 7a 49 be 4b 0b 43 be d0 8c 17 bd e2 dc 76 be
       -0.19675489 -0.19047277 -0.036999524 -0.24107698
000050 90 56 c4 3c 3a 5a 48 3e f1 9d 63 be 28 60 8a 3d
       0.023967057 0.19565669 -0.22228219 0.067566216
000060 fe 56 53 be a5 4f 5a 3e a0 8e f8 3e cf b3 da 3e
       -0.20638654 0.21319444 0.48546314 0.42715308
000070 18 5e ad be 34 8c 04 3f 40 d9 64 be 1e ef 02 3f
       -0.3386085 0.51776433 -0.223485 0.51146114
000080 e8 1b af 3c f6 64 0a 3f e3 39 37 bf 86 33 d2 3e
       0.021375611 0.54060304 -0.71572703 0.41054934
000090 af df 4e 3e 1d 3c 47 be b6 42 fe 3e 8f 34 49 be
       0.20202516 -0.19456525 0.4966027 -0.19648956
0000a0 0b 79 38 3f 12 28 a6 be 97 33 57 3f 7e 9b 70 be
       0.72059697 -0.32452446 0.84063095 -0.23496816
0000b0 31 f5 b9 3e 1f 09 dd 3d a6 1e 7b be 29 62 dc bd
       0.3631988 0.10792755 -0.2452341 -0.1076091
0000c0 96 4d e3 3e 91 02 fa 3c 0a 17 47 be f8 e1 90 bd
       0.4439513 0.030518802 -0.19442382 -0.0707435
0000d0 18 ee 3f 3f 62 74 a7 be f9 aa 44 3f cd 42 eb bd
       0.7497268 -0.3270598 0.76823384 -0.114873506
0000e0 5d 0f 00 3f b7 6b ed be 8c 32 f4 bd d7 3e 35 be
       0.5002344 -0.46371242 -0.119237036 -0.17699753
0000f0 1e c0 97 bd 81 bf 3a 3e fd 5e bd bc d6 f5 cd 3e
       -0.0740969 0.18237115 -0.023116583 0.4022662
000100 fd 03 83 3e 92 69 06 bf 9e cc d3 3e b3 2c f3 3d
       0.2558898 -0.5250484 0.41367048 0.1187376
000110 ee bf 97 be 52 9d 33 bc ff 0b e8 3e 75 1c 15 3c
       -0.29638618 -0.010962801 0.45321652 0.009101023
000120 6a 8a 09 be 75 e5 2b 3e 30 cb 3e bd 20 c5 6d 3e
       -0.13431707 0.1678675 -0.046580493 0.23219728
000130 42 42 91 be 7f f6 43 3e 06 17 1a bd d3 d4 6f 3e
       -0.28370863 0.19137 -0.037619613 0.2342103
000140 8f 1c 7a be 17 77 d1 3e cb 9d 55 bd 6c 63 01 3f
       -0.24424957 0.4091117 -0.052152436 0.5054233
000150 48 20 d3 bd 53 3e ac be c3 07 e8 3e 7a 5a 09 3f
       -0.103088915 -0.336413 0.45318422 0.5365368
000160 f8 52 17 3f f9 98 74 be f6 9f 37 be 1f 2d 10 3f
       0.59110975 -0.2388648 -0.17932114 0.5631885
000170 a1 76 ac 3c 97 d2 d0 3c 0f 6e 2a 3f 17 df ab be
       0.02105266 0.025491042 0.66574186 -0.33568642
000180 70 7c 16 3e f7 48 31 be c3 8a f3 bd 26 31 0c 3e
       0.14695907 -0.1731299 -0.11891701 0.13690624
000190 f8 58 9a be 37 05 77 be 22 1a a7 3e 9b d4 a8 3e
       -0.30146003 -0.24123083 0.32637125 0.32974705
0001a0 f3 bc 5a 3e 8a 42 71 3f 72 84 75 3e 4a 46 cc bc
       0.21361141 0.94242156 0.23976305 -0.02493586
0001b0 4a 9b 2c 3f dc 9a 48 3f d6 a6 0f be 51 85 d9 bc
       0.6742445 0.78361297 -0.14028487 -0.026552828
0001c0 23 3c a5 be ae ea 98 be 70 44 ab 3d d7 61 4f be
       -0.32272443 -0.29866546 0.08362663 -0.20252167
0001d0 16 8d 44 3e 40 c7 06 3e 10 44 ae be e2 cd 17 3e
       0.19194445 0.13161945 -0.34036303 0.14824632
0001e0 1c 36 50 3e 5b b8 a3 be 82 18 c7 3c 70 3b 04 be
       0.20333141 -0.3197659 0.024303678 -0.12913299
0001f0 ad 8a a6 be 0c 6b 87 3a 1c a4 8b be 27 6c a5 3e
       -0.32527676 0.0010331585 -0.27273643 0.32309076

fc1.bias f4 [16]
000000 84 bf 84 be 8c 96 5e 3e ad 33 94 3e 86 00 e3 bc
       -0.25927365 0.21737117 0.28945675 -0.02771021
000010 4e ee 7e bc 38 79 93 bd 91 f4 8d 3e 16 92 0e bc
       -0.015559746 -0.07200855 0.27725652 -0.008701822
000020 74 11 28 be e4 48 2b 3e 33 16 d1 3d 4f e6 3e bd
       -0.16412908 0.16727024 0.10209312 -0.04660636
000030 dc 12 95 3e 4e 9c a8 3e e0 29 6e 3d ca 76 5a bd
       0.2911595 0.3293175 0.058145404 -0.053335942

fc2.weight f4 [4, 16]
000000 25 08 6d 3d 31 1c 7e bf 38 29 22 be 64 9a ef bc
       0.057869095 -0.99261767 -0.15836036 -0.029248424
000010 ce cf 5f bf 15 fd ba 3e 19 d1 68 3d 46 b5 96 3d
       -0.8742646 0.3652121 0.056840036 0.07358794
000020 64 47 18 be 43 df 5e bc b0 30 19 bf 57 a2 88 be
       -0.14870983 -0.013603034 -0.59839916 -0.26686355
000030 34 92 ae be 46 16 57 3e f8 11 8f 3d a3 70 2b be
       -0.3409592 0.2100459 0.06985849 -0.16742186
000040 d1 c8 71 3e b7 0e 5c 3e 94 2b 04 be 93 1c 85 bd
       0.23611762 0.21489988 -0.12907249 -0.06499591
000050 3c 54 05 bf 7b 71 65 bd 44 d3 3c bd 1b c5 9c 3e
       -0.52081656 -0.056016427 -0.046099916 0.3061913
000060 c1 92 0d 3f a8 10 5e 3d 47 06 9f 3c c0 b4 15 3d
       0.55302054 0.054215103 0.019412173 0.03654933
000070 7f 12 bd 3e 68 90 49 bf 90 a9 76 3d 80 42 60 be
       0.36928174 -0.7873597 0.0602203 -0.21900368
000080 e4 c3 38 bf ce 9e c5 be b4 10 9f bd 74 21 9c be
       -0.72173905 -0.3859772 -0.07766858 -0.30494273
000090 8c 53 40 3f ae a8 71 bf ca 7b e6 3e 19 ab eb be
       0.7512748 -0.9439801 0.4501632 -0.46028975
0000a0 50 cb d3 be 00 73 a1 bd 22 6d 36 3e 4f ef 74 3e
       -0.41366053 -0.07883263 0.17815068 0.23919414
0000b0 ba 66 b1 bd a5 6e 64 be 70 d5 85 bc 85 c2 d4 bc
       -0.08662172 -0.22307833 -0.016337126 -0.02597166
0000c0 a6 36 21 bf 7b 33 c6 3e 72 d6 53 be fe 8a c4 3e
       -0.6297401 0.3871115 -0.20687273 0.38387293
0000d0 68 93 b5 be 3e bf 03 bf f9 f3 98 bf 50 97 27 be
       -0.35464025 -0.5146369 -1.1949455 -0.16366315
0000e0 f5 85 86 be e3 31 e3 3d 44 51 8b 3e 09 a1 37 bf
       -0.26274076 0.110934995 0.27210438 -0.71730095
0000f0 3d cf 8a bd e2 6d 36 3d dc 69 2b be 06 8b 5f be
       -0.06777809 0.044538386 -0.16739601 -0.21830377

fc2.bias f4 [4]
000000 20 ee ac 3e 28 4f 60 be 74 6c 56 be 2e 4d 0d 3e
       0.33775425 -0.21905196 -0.20939809 0.13798973
