reinforce-model-4k-episodes.pth (torch_old, 1642 bytes, 4 tensors)

fc1.weight f4 [16, 8]
-0.07306975 0.33577183 -0.019922644 -0.06835014 0.18392286 0.15858296 0.14179644 0.22863606
0.037822574 0.2673746 0.23633793 0.044474542 0.24926892 -0.24248889 0.3323662 0.062309563
-0.6443852 0.53928494 -0.31449792 -0.330124 -0.631433 -0.23712268 -0.19190353 0.34307253
0.34397742 0.27498356 -0.0013377368 0.25349852 0.23990616 -0.3291048 0.13467899 -0.025929749
0.3152872 -0.34496215 0.059328508 -0.1043847 0.6315529 -0.47458008 -0.23353487 -0.72652435
-0.14801832 -0.14140734 -0.7592231 0.4587526 -0.0173556 0.50121135 -0.72901785 -0.21715406
-0.22783203 0.1889067 0.019396484 -0.35253757 0.14485854 0.31803218 0.111676544 0.014071137
-0.37018213 -0.27401567 0.7080808 -0.30029467 0.063557446 -0.0960159 -0.10446849 -0.5171822
0.3447931 -0.22034739 0.013018936 0.10128802 0.035737067 -0.12945755 0.08515033 0.34902617
0.8678359 -0.2760639 -0.26298562 -0.4278492 0.24888438 0.09096583 -0.41107953 -0.19792485
-0.15652488 -0.7810937 0.35199806 0.2922692 -0.09759749 -0.09545205 0.24552163 -0.4308084
0.8828355 -0.18515764 -0.50550807 -0.5430879 0.34482932 0.2076625 -0.4069516 -0.23396933
-0.31222397 -0.77027476 -0.2342624 0.6543382 0.04740318 0.39405635 -0.820207 -0.363647
0.16233364 0.26388147 0.061057925 -0.07881123 0.31704828 -0.18178736 0.17666498 -0.10193974
-0.55790675 -0.2544803 0.1865342 -0.5265172 -0.3038977 -0.91635627 0.12588443 -0.51214546
0.086610556 0.23485509 0.2042763 0.32462946 0.22492114 0.14250961 -0.05785042 -0.078857034
00000000: 98a5 95bd 49ea ab3e d034 a3bc 28fb 8bbd
00000010: 4656 3c3e 9263 223e 1633 113e 921f 6a3e
00000020: d8eb 1a3d 53e5 883e 9202 723e f02a 363d
00000030: 5a40 7f3e 024f 78be e72b aa3e 5038 7f3d
00000040: 6ef6 24bf 940e 0a3f df05 a1be 0306 a9be
00000050: 98a5 21bf 4ad0 72be 5c82 44be 34a7 af3e
00000060: cf1d b03e a5ca 8c3e 0057 afba 8fca 813e
00000070: f6a9 753e 6d80 a8be 4ae9 093e a06a d4bc
00000080: 536d a13e e19e b0be 7302 733d a5c7 d5bd
00000090: 73ad 213f 29fc f2be c423 6fbe 80fd 39bf
000000a0: 1d92 17be 16cd 10be 725c 42bf 9fe1 ea3e
000000b0: 552d 8ebc 634f 003f eaa0 3abf a25d 5ebe
000000c0: cd4c 69be c270 413e 60e5 9e3c ce7f b4be
000000d0: cc55 143e 1dd5 a23e acb6 e43d a08a 663c
000000e0: 8388 bdbe c84b 8cbe c944 353f 39c0 99be
000000f0: 682a 823d fca3 c4bd 93f3 d5bd 0d66 04bf
00000100: b988 b03e bfa2 61be 604d 553c 1870 cf3d
00000110: 0861 123d 8590 04be 4c63 ae3d 8fb3 b23e
00000120: 7e2a 5e3f 3f58 8dbe 0da6 86be 0d0f dbbe
00000130: 8cdb 7e3e 4b4c ba3d 0479 d2be d0ac 4abe
00000140: 0f48 20be c2f5 47bf 1739 b43e 4fa4 953e
00000150: 31e1 c7bd 5d7c c3bd 066a 7b3e eb92 dcbe
00000160: 8201 623f f799 3dbe fa68 01bf cf07 0bbf
00000170: 788d b03e 7aa5 543e f65b d0be a895 6fbe
00000180: d2db 9fbe ba30 45bf 7ce2 6fbe b582 273f
00000190: d629 423d c1c1 c93e 16f9 51bf f12f babe
000001a0: ca3a 263e 791b 873e e017 7a3d c867 a1bd
000001b0: 2754 a23e 7726 3abe aae7 343e c8c5 d0bd
000001c0: fad2 0ebf 3e4b 82be d202 3f3e d5c9 06bf
000001d0: 7b98 9bbe 5396 6abf d9e7 003e f71b 03bf
000001e0: e060 b13d da7d 703e ce2d 513e d535 a63e
000001f0: ba51 663e 0aee 113e 90f4 6cbd cc7f a1bd

fc1.bias f4 [16]
0.2835993 0.25389293 0.062496036 0.04581788 0.05293259 0.44304723 -0.20527534 0.21106762
0.3225552 0.06091627 0.20999748 0.16715465 0.35510296 0.15019944 0.41587448 0.2191588
00000000: ed33 913e 41fe 813e d8fb 7f3d 88ab 3b3d
00000010: d8cf 583d 16d7 e23e b333 52be 1c22 583e
00000020: f525 a53e 5783 793d 9409 573e 972a 2b3e
00000030: 0ed0 b53e e2cd 193e 80ed d43e 2a6b 603e

fc2.weight f4 [4, 16]
0.16905063 0.017950863 0.70754015 -0.037146628 -0.7661679 -0.26433322 0.031498253 -0.23431842
-0.06157884 -0.22382355 -0.3984966 -0.17877243 -1.0660005 -0.19464704 0.11034094 -0.03694889
-0.22674495 -0.20110363 -1.0468533 0.14848235 0.25583676 0.1180363 -0.03793499 -0.1735239
0.007046461 0.29504585 -0.13226782 0.6737359 0.0064218678 0.16975066 -0.33433953 -0.030358762
0.16192973 0.13349697 -0.16907376 0.07442698 -0.72093743 0.49737677 -0.04299572 -0.29081133
-0.15688708 -0.8200749 0.22009331 -0.52832323 0.39579555 -0.15917993 -0.37339061 0.08252147
0.226452 -0.17411715 -0.6962746 0.12079704 0.24754916 -0.92659616 0.099684685 0.2186954
-0.10567626 -0.34926215 0.4953947 -0.40775844 -0.17501348 0.22573963 0.13571796 0.24717137
00000000: 9c1b 2d3e b00d 933c 5a21 353f 1027 18bd
00000010: 9423 44bf af56 87be 5004 013d 2bf1 6fbe
00000020: 183a 7cbd 0032 65be bf07 ccbe 1f10 37be
00000030: b472 88bf 8e51 47be 6efa e13d b857 17bd
00000040: d42f 68be 1cee 4dbe 4aff 85bf c20b 183e
00000050: 09fd 823e 04bd f13d b861 1bbd 40b0 31be
00000060: 00e6 e63b 4010 973e 3771 07be f579 2c3f
00000070: 886e d23b 1ed3 2d3e 8d2e abbe f0b2 f8bc
00000080: e8d0 253e 6eb3 083e ac21 2dbe 2c6d 983d
00000090: 5b8f 38bf 2ba8 fe3e 481c 30bd 39e5 94be
000000a0: 02a7 20be 6ef0 51bf 2460 613e 3140 07bf
000000b0: b7a5 ca3e 1000 23be 0e2d bfbe 0401 a93d
000000c0: 08e3 673e c44b 32be 0d3f 32bf 7064 f73d
000000d0: 877d 7d3e 6835 6dbf 7c27 cc3d b0f1 5f3e
000000e0: cc6c d8bd 7dd2 b2be 60a4 fd3e b7c5 d0be
000000f0: bc36 33be 4a28 673e a6f9 0a3e 7e1a 7d3e

fc2.bias f4 [4]
0.27677134 -0.1511877 0.13884623 -0.19861715
00000000: f9b4 8d3e f3d0 1abe b52d 0e3e 4b62 4bbe
