reinforce-model.pth (torch, 2583 bytes, 4 tensors)

fc1.weight f4 [16, 8]
0	0xbe9c9a30	-0.30586386
1	0x3e50dec4	0.20397478
2	0xbed85b48	-0.42257142
3	0xbecc1f9b	-0.39867863
4	0xbe335be3	-0.17515521
5	0xbdead0d2	-0.114656106
6	0x3ee6f5cc	0.45109403
7	0x3ebae03c	0.36499202
8	0xbe9f800c	-0.3115238
9	0x3f039fbc	0.5141561
10	0xbe12aa53	-0.14322786
11	0xbe338f4d	-0.17535134
12	0xbe97e1ec	-0.29664552
13	0xbe367d8e	-0.17821333
14	0x3ea85332	0.32875973
15	0x3e76a66f	0.24086927
16	0x3e0a5410	0.1350863
17	0x3e97b22b	0.2962812
18	0xbe3280c9	-0.1743194
19	0x3e9bb2df	0.30409905
20	0xbe84f576	-0.25968522
21	0x3eb1b749	0.34710148
22	0x3d984e2c	0.07436785
23	0xbc42d5e0	-0.011891812
24	0x3d112932	0.035439678
25	0xbdfe1313	-0.12405982
26	0x3e8c8903	0.27448282
27	0xbf0db8b3	-0.55359954
28	0x3efe7f56	0.49706525
29	0xbee2a388	-0.4426539
30	0xbe9f360e	-0.31095928
31	0xbf15e1b0	-0.58547497
32	0x3e436aca	0.19083706
33	0x3e34902a	0.17633119
34	0x3e736e86	0.2377263
35	0x3e54cca2	0.20781186
36	0x3ea494ef	0.32144877
37	0xbe6110f3	-0.21979122
38	0xbd58d540	-0.052937746
39	0x3e4637e6	0.19357261
40	0x3e5cd292	0.21564701
41	0xbe878786	-0.26470584
42	0x3e7adb16	0.24497637
43	0x3d8c7208	0.06857687
44	0x3e0a82d4	0.1352647
45	0xbe44874a	-0.19192234
46	0xbe4511fb	-0.1924514
47	0x3ea7aca3	0.327489
48	0x3e5f746d	0.21821757
49	0xbdc4bf70	-0.09606826
50	0xbe1cd599	-0.15315856
51	0xbf0ad755	-0.5423482
52	0x3f1102be	0.5664481
53	0x3d48ffd5	0.049072105
54	0xbe937e25	-0.28807178
55	0xbf2706ce	-0.6524476
56	0x3e51399e	0.20432135
57	0x3cb3d2a0	0.02195102
58	0x3bd50340	0.0065006316
59	0x3e9c8a6f	0.30574366
60	0x3e6e7a06	0.23288736
61	0xbdef604e	-0.116882905
62	0x3e994847	0.29937956
63	0x3e7237a2	0.23654035
64	0xbe55627c	-0.2083835
65	0xbf458a4b	-0.77164143
66	0xbe313ee9	-0.17309155
67	0x3e2a787c	0.16647524
68	0x3ea63e82	0.32469565
69	0x3e0a0c08	0.13481152
70	0xbe978328	-0.29592252
71	0xbf174baf	-0.5909986
72	0x3df003c7	0.117194705
73	0xbe78b081	-0.24286081
74	0x3def2da8	0.1167863
75	0xbe5fd016	-0.21856722
76	0xbb474a0b	-0.0030409123
77	0x3e48e610	0.19619012
78	0x3e7e01e9	0.24805416
79	0xbcc37a13	-0.02386192
80	0x3ea8e8bc	0.32990062
81	0xbed8f4ca	-0.4237426
82	0x3e7bc3b1	0.24586369
83	0xbf5f58e3	-0.87245005
84	0x3ec0d9cf	0.37666175
85	0x3da10e76	0.07864086
86	0xbe538905	-0.20657738
87	0xbf1db7ee	-0.6160878
88	0xbea6839f	-0.32522294
89	0xbed9e2b3	-0.4255577
90	0xbf93daea	-1.1551182
91	0x3e5b682a	0.21426454
92	0xbeab0590	-0.3340268
93	0x3ee98239	0.45607165
94	0xbf0e8a44	-0.55679727
95	0x3e51bf49	0.20483126
96	0xbe40738e	-0.1879408
97	0x3df90b76	0.12160389
98	0xbf906367	-1.1280335
99	0x3dde2542	0.1084695
100	0xbf133229	-0.57498413
101	0x3e23a3db	0.15980475
102	0xbf05cd7a	-0.5226666
103	0x3e0948b4	0.1340664
104	0xbe695e0f	-0.22789787
105	0x3cfca460	0.030840099
106	0x3eafc2db	0.3432835
107	0x3d5a1f40	0.05325246
108	0xbb621c00	-0.0034501553
109	0x3c556540	0.013024628
110	0xbe198b15	-0.14994462
111	0x3dcf1fc0	0.10113478
112	0xbf751559	-0.957357
113	0x3e8d7149	0.27625492
114	0x3c240edd	0.010013309
115	0xbea9309c	-0.330449
116	0x3d9797e3	0.07402017
117	0xbf6a2681	-0.91465
118	0x3f1bd4e4	0.6087172
119	0xbeac2ab4	-0.3362633
120	0x3e0cb3a9	0.1374041
121	0x3ce60822	0.02808005
122	0xbe347ba3	-0.17625289
123	0x3dc43d5f	0.09582018
124	0x3e701975	0.23447211
125	0x3e8ea14c	0.27857435
126	0xbea35aa5	-0.31905094
127	0x3e8cb6f1	0.27483323

fc1.bias f4 [16]
0	0x3cf0199a	0.029309083
1	0x3e8db85f	0.27679726
2	0x3e90530f	0.2818837
3	0xbdc6fb3e	-0.097158894
4	0x3d2a52d0	0.041582882
5	0xbc0e8ba0	-0.008700281
6	0x3e2c5db4	0.1683262
7	0xbdcc7a14	-0.09984222
8	0x3ebeb914	0.37250578
9	0x3cd6a553	0.02620188
10	0x3e8d9c24	0.27658188
11	0x3ec0c012	0.37646538
12	0xbdd5861e	-0.104259714
13	0xbe8e3977	-0.27778217
14	0xbdde77fa	-0.108627275
15	0x3e4f0941	0.20218374

fc2.weight f4 [4, 16]
0	0x3f3dcc40	0.74139786
1	0x3ee304f5	0.4433972
2	0xbdc1531c	-0.0943968
3	0xbe9fe207	-0.31227133
4	0xb9a5e800	-0.00031644106
5	0x3d3179f8	0.04332921
6	0xbe81e8d8	-0.25372958
7	0xbd081db0	-0.033231437
8	0xbeed03c0	-0.46291924
9	0xbd3d2e0e	-0.0461865
10	0xbf1fa87a	-0.6236645
11	0xbe439985	-0.19101532
12	0x3ded0cab	0.11574682
13	0x3e284796	0.16433558
14	0x3ece3b92	0.40279824
15	0x3e6ea841	0.23306371
16	0xbdd28c34	-0.10280648
17	0xbba01776	-0.0048856093
18	0xbe6598b0	-0.22421527
19	0x3e7c52a6	0.24640903
20	0xbe2a2bc2	-0.16618255
21	0xbba14b00	-0.004922271
22	0x3e9a03c7	0.30081007
23	0x3d83d4cc	0.06437072
24	0x3e511a56	0.20420203
25	0xbe2f1a4b	-0.17099874
26	0x3e7f7710	0.24947762
27	0xbcfaad2a	-0.03060015
28	0xbe50dbce	-0.20396349
29	0xbe2a55ae	-0.16634247
30	0xbf8d4094	-1.1035333
31	0xbe2770e7	-0.16351663
32	0xbf25541e	-0.6458148
33	0xbf0376b0	-0.5135298
34	0xbc5510a0	-0.013004452
35	0xbf770a59	-0.96500164
36	0xbdfd19a4	-0.12358406
37	0xbdc18ed0	-0.094510674
38	0xbf0bffc1	-0.54687124
39	0x3e116554	0.1419881
40	0x3e8a7be2	0.2704764
41	0xbe0d2ac5	-0.13785847
42	0xbf86b994	-1.0525384
43	0x3f204295	0.62601596
44	0x3ee25ee5	0.44213024
45	0x3dff85dc	0.124767035
46	0xbf38a7d4	-0.72131085
47	0xbe36383c	-0.17794889
48	0xbe97e57c	-0.2966727
49	0xbe510b0a	-0.20414367
50	0xbe2ef2b2	-0.17084768
51	0x3ec8d58e	0.3922543
52	0x3e592acc	0.21207732
53	0xbd745a48	-0.05965641
54	0x3da43b62	0.08019139
55	0x3e79ba02	0.24387363
56	0x3e44ddce	0.19225237
57	0xbe5e9213	-0.2173541
58	0x3e022c1a	0.12712136
59	0xbf73e457	-0.95270294
60	0xbf827426	-1.0191696
61	0x3cf0bc10	0.02938655
62	0x3f12c295	0.5732816
63	0x3d387e1f	0.045042153

fc2.bias f4 [4]
0	0xbd03ca7b	-0.032175522
1	0xbd803666	-0.06260376
2	0x3d9dc25b	0.07703086
3	0x3e0436d3	0.12911539
