reinforce-model-6k-episodes.pth (torch_old, 1642 bytes, 4 tensors)

fc1.weight f4 [16, 8]
000000 98 a5 95 bd 49 ea ab 3e d0 34 a3 bc 28 fb 8b bd
       -0.07306975 0.33577183 -0.019922644 -0.06835014
000010 46 56 3c 3e 92 63 22 3e 16 33 11 3e 92 1f 6a 3e
       0.18392286 0.15858296 0.14179644 0.22863606
000020 d8 eb 1a 3d 53 e5 88 3e 92 02 72 3e f0 2a 36 3d
       0.037822574 0.2673746 0.23633793 0.044474542
000030 5a 40 7f 3e 02 4f 78 be e7 2b aa 3e 50 38 7f 3d
       0.24926892 -0.24248889 0.3323662 0.062309563
000040 64 61 2e bf 25 a2 01 3f 95 d3 b4 be ba 22 b9 be
       -0.68117356 0.5063804 -0.35317674 -0.36159307
000050 ab 9a 2b bf 06 46 8a be b7 e7 68 be 5b a6 a0 3e
       -0.6703288 -0.2700655 -0.22744642 0.3137692
000060 cf 1d b0 3e a5 ca 8c 3e 00 57 af ba 8f ca 81 3e
       0.34397742 0.27498356 -0.0013377368 0.25349852
000070 f6 a9 75 3e 6d 80 a8 be 4a e9 09 3e a0 6a d4 bc
       0.23990616 -0.3291048 0.13467899 -0.025929749
000080 ae ad aa 3e 36 b9 ac be b3 99 99 3d 67 e5 bf bd
       0.33335632 -0.33735055 0.07500019 -0.09369927
000090 94 7a 26 3f 6c 48 eb be 1f 0b 66 be 11 c4 38 bf
       0.6503079 -0.4595369 -0.2246518 -0.72174174
0000a0 b2 b6 fd bd bc c7 d4 bd 97 8b 3a bf 31 d2 fa 3e
       -0.12388362 -0.10389659 -0.7286925 0.48988488
0000b0 8f 6e ee 3b 19 a0 06 3f be 13 31 bf 66 12 37 be
       0.007276363 0.5258804 -0.6917075 -0.17878112
0000c0 cd 4c 69 be c2 70 41 3e 60 e5 9e 3c ce 7f b4 be
       -0.22783203 0.1889067 0.019396484 -0.35253757
0000d0 cc 55 14 3e 1d d5 a2 3e ac b6 e4 3d a0 8a 66 3c
       0.14485854 0.31803218 0.111676544 0.014071137
0000e0 58 f0 bf be 3d b7 96 be da 8c 32 3f 97 97 9f be
       -0.37488055 -0.29436675 0.6974617 -0.3117034
0000f0 75 fe 6e 3d d8 3f ce bd 7e f2 fe bd 47 92 09 bf
       0.058348138 -0.10070771 -0.124485955 -0.53738827
000100 b9 88 b0 3e bf a2 61 be 60 4d 55 3c 18 70 cf 3d
       0.3447931 -0.22034739 0.013018936 0.10128802
000110 08 61 12 3d 85 90 04 be 4c 63 ae 3d 8f b3 b2 3e
       0.035737067 -0.12945755 0.08515033 0.34902617
000120 80 a1 5a 3f d9 2e 93 be 19 39 8e be 99 08 e2 be
       0.8540268 -0.2874668 -0.27777937 -0.44147184
000130 62 5e 6f 3e eb 0b 9b 3d a1 fd d8 be ae 5b 57 be
       0.23375848 0.075706325 -0.42381003 -0.21031067
000140 82 72 11 be 36 41 47 bf 51 5d ba 3e 7a da 9a 3e
       -0.14203838 -0.7783388 0.3639932 0.3024481
000150 61 ed a7 bd 0d 61 a5 bd 91 f7 7f 3e e6 ab da be
       -0.08199573 -0.080751516 0.24996783 -0.42709273
000160 4d 7f 61 3f f5 34 3a be f1 60 01 bf 16 e6 0a bf
       0.8808487 -0.18184264 -0.50538546 -0.54257333
000170 d8 ca ae 3e 2d 41 51 3e ea 71 cf be 6d 36 6d be
       0.34139132 0.20435019 -0.40516597 -0.23165293
000180 42 88 85 be bf fb 36 bf 75 73 35 be 36 dd 34 3f
       -0.2608052 -0.71477884 -0.17719825 0.7065004
000190 9b 53 cf 3d 39 41 e3 3e 21 24 43 bf 07 6c 9e be
       0.10123368 0.44385698 -0.76227003 -0.30941793
0001a0 ca 3a 26 3e 79 1b 87 3e e0 17 7a 3d c8 67 a1 bd
       0.16233364 0.26388147 0.061057925 -0.07881123
0001b0 27 54 a2 3e 77 26 3a be aa e7 34 3e c8 c5 d0 bd
       0.31704828 -0.18178736 0.17666498 -0.10193974
0001c0 14 2a 1b bf 27 8c 9f be 15 43 09 3e b7 2a 13 bf
       -0.6061108 -0.31161615 0.13404496 -0.5748705
0001d0 56 1b b5 be bc fe 75 bf 1a 25 8a 3d 37 e2 10 bf
       -0.35372418 -0.9609182 0.06745358 -0.56595176
0001e0 e0 60 b1 3d da 7d 70 3e ce 2d 51 3e d5 35 a6 3e
       0.086610556 0.23485509 0.2042763 0.32462946
0001f0 ba 51 66 3e 0a ee 11 3e 90 f4 6c bd cc 7f a1 bd
       0.22492114 0.14250961 -0.05785042 -0.078857034

fc1.bias f4 [16]
000000 ed 33 91 3e 41 fe 81 3e b1 2b a1 3d 88 ab 3b 3d
       0.2835993 0.25389293 0.078696616 0.04581788
000010 35 64 6f 3d 59 d0 c6 3e b3 33 52 be 0e d9 7d 3e
       0.058445174 0.38830832 -0.20527534 0.24789831
000020 f5 25 a5 3e c6 28 8b 3d b9 2e 67 3e cf 7b 24 3e
       0.3225552 0.06794886 0.22576417 0.16062854
000030 cc de a4 3e e2 cd 19 3e 90 4c f3 3e 2a 6b 60 3e
       0.3220123 0.15019944 0.4751935 0.2191588

fc2.weight f4 [4, 16]
000000 9c 1b 2d 3e b0 0d 93 3c ff d2 3e 3f 10 27 18 bd
       0.16905063 0.017950863 0.74540704 -0.037146628
000010 f2 e3 3a bf 01 e8 68 be 50 04 01 3d 0d 18 48 be
       -0.73004067 -0.22744752 0.031498253 -0.19540425
000020 18 3a 7c bd 13 1d 46 be f4 af b6 be 4a 2b 20 be
       -0.06157884 -0.19347028 -0.35681117 -0.15641513
000030 59 39 83 bf 8e 51 47 be f9 02 17 3e b8 57 17 bd
       -1.0251876 -0.19464704 0.14747228 -0.03694889
000040 d4 2f 68 be 1c ee 4d be c7 e7 88 bf c2 0b 18 3e
       -0.22674495 -0.20110363 -1.0695733 0.14848235
000050 19 1c 6f 3e 65 27 bb 3d b8 61 1b bd 9e da 4a be
       0.23350562 0.09138373 -0.03793499 -0.19809958
000060 00 e6 e6 3b a0 68 8b 3e c5 73 25 be 58 1d 27 3f
       0.007046461 0.2722826 -0.16157444 0.6527915
000070 85 89 c1 bc 1e d3 2d 3e 87 b6 b6 be f0 b2 f8 bc
       -0.023625145 0.16975066 -0.35686132 -0.030358762
000080 e8 d0 25 3e 6e b3 08 3e 44 a3 4d be 2c 6d 98 3d
       0.16192973 0.13349697 -0.20081812 0.07442698
000090 82 63 42 bf 6b 30 ee 3e 48 1c 30 bd 82 e4 a8 be
       -0.75933087 0.46521315 -0.04299572 -0.32986838
0000a0 02 a7 20 be 37 7c 5b bf 5a 3a 3a 3e bf 22 10 bf
       -0.15688708 -0.8573641 0.18186322 -0.5630302
0000b0 5d 63 b9 3e 10 00 23 be 3c 32 d1 be 04 01 a9 3d
       0.3620862 -0.15917993 -0.40858638 0.08252147
0000c0 08 e3 67 3e c4 4b 32 be a4 f2 30 bf 70 64 f7 3d
       0.226452 -0.17411715 -0.6912024 0.12079704
0000d0 d1 46 8c 3e 77 ac 65 bf 7c 27 cc 3d 7b be 70 3e
       0.2739778 -0.89716285 0.099684685 0.23510163
0000e0 cc 6c d8 bd f4 64 98 be 73 1b 04 3f 0d a6 b5 be
       -0.10567626 -0.2976452 0.51604384 -0.3547825
0000f0 03 a8 17 be 4a 28 67 3e 34 78 16 3e 7e 1a 7d 3e
       -0.14810185 0.22573963 0.14694291 0.24717137

fc2.bias f4 [4]
000000 0c 91 95 3e 35 0e 3c be 2c 32 d7 3d fb 73 22 be
       0.29212224 -0.18364795 0.105076164 -0.15864556
