reinforce-model-20k-episodes.pth (torch_old, 1642 bytes, 4 tensors)

fc1.weight f4 [16, 8]
-0.07792464 -0.010521024 0.2921224 0.19886032 0.3380408 0.011591017 0.2686756 0.1969293
0.46178982 0.71967 -0.50719863 -0.9032429 -0.15940353 -0.54571706 -0.18848552 0.05823822
-0.16077581 -1.1978586 -0.29222372 0.038515624 0.26860115 0.5486499 -0.9553535 -0.85030836
-1.2145544 0.12861559 0.54891264 -0.33571905 -1.022864 -0.8161627 0.08197653 0.3092233
0.13290209 0.02632673 -0.20871727 0.21768092 0.29727575 -0.043107267 0.047131617 -0.22535057
0.20052755 -0.7859837 0.48970324 -0.20097017 0.053514056 -0.0068364274 -0.38595107 -0.73808444
0.27778694 0.3193392 0.05257961 -0.1781972 -0.13843457 0.22699139 0.2793084 0.13880774
-0.22049311 0.47348678 0.26111668 -1.1507593 -0.40229514 -0.4845876 0.50255823 -0.5585819
-0.037395194 -0.38007393 -0.64315593 0.44352975 -0.54691845 0.12602411 -0.7349863 0.24213602
1.042151 -0.17406976 -0.9124782 -0.37281623 0.48560458 0.2897467 -0.2262427 -0.569192
0.14679071 0.27972355 -0.120927736 -0.24446273 -0.17492619 0.349017 0.35204265 0.17675123
-0.89828336 0.51494855 -1.0202192 0.32451296 -0.91219336 -0.4138044 0.08281299 0.53110003
0.010254741 -0.06172645 0.12641105 0.25274566 -0.059950024 0.020274818 0.1671814 0.03679508
-0.4541947 0.16201855 0.53025717 -0.6029216 0.33282492 -0.8093076 0.1405666 -0.71976775
0.31288862 -0.033274926 -0.7037278 -0.17903711 -0.17523335 0.09372411 -0.43518046 0.14891993
-0.5502535 -0.248035 0.5775679 -0.4599554 0.66857296 -0.014437985 -0.22707571 -0.87218326
00000000: f496 9fbd 6060 2cbc 1191 953e 0aa2 4b3e
00000010: af13 ad3e 40e8 3d3c d98f 893e d6a7 493e
00000020: b76f ec3e 4b3c 383f c5d7 01bf ed3a 67bf
00000030: ae3a 23be 1db4 0bbf 5902 41be 338b 6e3d
00000040: 6aa2 24be 6e53 99bf 599e 95be 8fc2 1d3d
00000050: 1786 893e 5274 0c3f 0c92 74bf cfad 59bf
00000060: 8576 9bbf ceb3 033e 8a85 0c3f 5ee3 abbe
00000070: 35ed 82bf 0af0 50bf 50e3 a73d 8452 9e3e
00000080: 7c17 083e 28ab d73c fbb9 55be bfe7 5e3e
00000090: 8734 983e 3f91 30bd 150d 413d 4dc2 66be
000000a0: 1857 4d3e 3a36 49bf 62ba fa3e 20cb 4dbe
000000b0: 8e31 5b3d 1c04 e0bb 619b c5be 1af3 3cbf
000000c0: 173a 8e3e 6d80 a33e b85d 573d 5479 36be
000000d0: cbc1 0dbe 6e70 683e 8301 8f3e 9e23 0e3e
000000e0: f2c8 61be dc6c f23e 16b1 853e 154c 93bf
000000f0: a1f9 cdbe de1b f8be a8a7 003f 39ff 0ebf
00000100: b42b 19bd 0d99 c2be dea5 24bf 5516 e33e
00000110: d902 0cbf 770c 013e 1028 3cbf 81f2 773e
00000120: 3465 853f 583f 32be 2c98 69bf c5e1 bebe
00000130: 2aa1 f83e ae59 943e 2bac 67be 91b6 11bf
00000140: 4e50 163e ed37 8f3e f6a8 f7bd 7054 7abe
00000150: da1f 33be 5bb2 b23e ef3e b43e 46fe 343e
00000160: e6f5 65bf abd3 033f 8b96 82bf 9026 a63e
00000170: 8185 69bf 2cde d3be db99 a93d 2cf6 073f
00000180: 8003 283c e0d4 7cbd e671 013e e167 813e
00000190: 288e 75bd 6017 a63c 9a31 2b3e 70b6 163d
000001a0: 358c e8be 31e8 253e efbe 073f 1259 1abf
000001b0: 0768 aa3e c82e 4fbf b1f0 0f3e b342 38bf
000001c0: f032 a03e 4a4b 08bd 8127 34bf 8155 37be
000001d0: 5f70 33be 6df2 bf3d f9cf debe 777e 183e
000001e0: 6add 0cbf e3fc 7dbe 7ddb 133f 467f ebbe
000001f0: 9927 2b3f 4c8d 6cbc 8986 68be 6747 5fbf

fc1.bias f4 [16]
-0.070326775 -0.1825785 -0.1792051 0.06773618 -0.24569325 -0.003756619 -0.119519696 0.28766626
-0.12574373 0.40966123 -0.19891849 0.43768615 0.28822288 0.36941925 0.3191414 0.00043537968
00000000: 7c07 90bd dcf5 3abe 8b81 37be 44b9 8a3d
00000010: 0397 7bbe 9c31 76bb bec6 f4bd fe48 933e
00000020: f7c2 00be 1ebf d13e 4ab1 4bbe 6618 e03e
00000030: f391 933e 8524 bd3e 8066 a33e ac43 e439

fc2.weight f4 [4, 16]
-0.120248616 0.61418074 -1.6068131 0.22137459 0.021942614 -0.7324229 -0.07432121 0.35246116
-0.2983263 -0.3241551 -0.060209453 0.35509893 -0.017910361 0.069255784 -0.08141903 -0.9209389
-0.24145421 0.40314576 0.29461873 -1.300079 -0.15502553 0.3109113 -0.16935873 -0.20537606
-0.006783681 0.94951814 0.15233508 -1.0914766 0.11811972 -0.48104253 0.24582152 -0.020107582
0.14422593 -1.1685791 0.36813384 -0.029139895 -0.19178762 -0.058324553 -0.035304993 -0.745862
0.638668 -0.92601997 0.13429621 0.27389768 0.1120255 -1.1953931 0.025713531 -0.6472214
0.024433762 -0.44416615 -0.09484515 0.042450067 -0.008871218 0.32556438 -0.04921058 0.18608956
-1.179492 -1.3004209 0.16697821 -0.81036097 -0.1179761 0.3713709 -0.6428513 0.7881744
00000000: e844 f6bd f33a 1d3f 0dac cdbf 05b0 623e
00000010: ffc0 b33c 1180 3bbf b835 98bd ca75 b43e
00000020: 3abe 98be a8f7 a5be 309e 76bd 87cf b53e
00000030: c0b8 92bc fad5 8d3d 05bf a6bd a7c2 6bbf
00000040: c63f 77be 1f69 ce3e 44d8 963e fd68 a6bf
00000050: 03bf 1ebe c42f 9f3e 606c 2dbe 1a4e 52be
00000060: a449 debb 9f13 733f bafd 1b3e 81b5 8bbf
00000070: c0e8 f13d 354b f6be a3b8 7b3e a8b8 a4bc
00000080: f6af 133e 0094 95bf 0a7c bc3e cab6 eebc
00000090: f963 44be bae5 6ebd f89b 10bd d0f0 3ebf
000000a0: bf7f 233f a50f 6dbf f284 093e 513c 8c3e
000000b0: a06d e53d a402 99bf 2fa5 d23c 4db0 25bf
000000c0: 5029 c83c bf69 e3be 2d3e c2bd 1fe0 2d3d
000000d0: 9658 11bc 60b0 a63e 0891 49bd 438e 3e3e
000000e0: 98f9 96bf 3174 a6bf 56fc 2a3e d173 4fbf
000000f0: 749d f1bd 5424 be3e e791 24bf ccc5 493f

fc2.bias f4 [4]
-0.010190985 -0.22468123 0.054628048 -0.21923113
00000000: 17f8 26bc d612 66be a9c1 5f3d 207e 60be
