reinforce-model-pyg-40k-episodes.pth (torch_old, 1386 bytes, 4 tensors)

fc1.weight f4 [16, 4]
0	0xbd2426de	-0.04007613
1	0x3ed2f740	0.41204262
2	0x3f274069	0.6533266
3	0x3e962246	0.29323024
4	0x3da7fe15	0.08202759
5	0xbda4d081	-0.080475815
6	0x3f28b3dc	0.65899444
7	0xbfa4b0df	-1.2866477
8	0x3e9d9f80	0.3078575
9	0x3e3e4c69	0.18583836
10	0xbee0ef7d	-0.43932715
11	0xbebfc3b2	-0.3745399
12	0xbea66d5d	-0.32505313
13	0x3ebbb8ff	0.36664578
14	0xbe8acd5d	-0.27109805
15	0x3db5c038	0.088745534
16	0xbbf09010	-0.0073413923
17	0x3c7e8c9e	0.015536455
18	0xbf6ddda9	-0.9291635
19	0x3f693cb7	0.9110827
20	0x3c8b8614	0.017031707
21	0xbd7e77d0	-0.06212598
22	0xbf3f7749	-0.7479139
23	0xbd893b30	-0.06700742
24	0xbc63f3bd	-0.013913092
25	0xbe63bd7d	-0.22240253
26	0xbcbe09f9	-0.023198115
27	0x3f3ed39e	0.7454165
28	0x3d232bd8	0.039836735
29	0x3b443308	0.0029937644
30	0x3f6633e8	0.8992295
31	0xbf80cd11	-1.0062581
32	0x3f135395	0.5754941
33	0xbdec8acd	-0.11549912
34	0x3f5bae8f	0.8581323
35	0x3f6d0139	0.9257999
36	0xbd179ea8	-0.03701654
37	0x3db59dd2	0.088679925
38	0xbf4f51ee	-0.8098439
39	0x3fafaaca	1.3723996
40	0xbe3ff318	-0.18745077
41	0xbe21fcf5	-0.15819152
42	0x3f93a855	1.1535746
43	0xbdfbd569	-0.12296564
44	0xbe98b6b0	-0.2982688
45	0xbc6d2071	-0.014473067
46	0xbf85fb42	-1.0467303
47	0xbf93406f	-1.1504039
48	0xbb0ebf66	-0.0021781563
49	0xbd719078	-0.058975667
50	0xbf774957	-0.9659628
51	0xbf135ff6	-0.575683
52	0xbcb357e3	-0.021892494
53	0xbd9b711f	-0.075899355
54	0xbfa248ff	-1.2678527
55	0xbfaf4fa5	-1.369618
56	0xbe6fc149	-0.23413576
57	0x3e3a87ab	0.18215816
58	0xbf26cb67	-0.6515412
59	0x3f668b61	0.90056425
60	0x3d02d830	0.031944454
61	0xbcb3f604	-0.021967895
62	0x3f5802d4	0.84379315
63	0xbf098209	-0.5371404

fc1.bias f4 [16]
0	0xbcc9747f	-0.024591682
1	0x3f296f6d	0.6618565
2	0xbea66584	-0.32499325
3	0xbe5957cf	-0.21224903
4	0x3f646095	0.8920987
5	0x3ec799f8	0.38984656
6	0xbc5cf757	-0.013486705
7	0x3f3cc9cc	0.7374542
8	0x3f1969e8	0.59927225
9	0x3f96cb57	1.1780804
10	0x3f246431	0.6421538
11	0x3e95801b	0.291993
12	0x3f011500	0.5042267
13	0x3f6390bb	0.88892716
14	0x3e759f8f	0.23986648
15	0x3f02e5b1	0.5113173

fc2.weight f4 [4, 16]
0	0x3d320bb4	0.043468192
1	0x3ef0b02a	0.47009403
2	0xbed98dc1	-0.42490962
3	0x3e10e073	0.1414812
4	0xbecc541b	-0.39907917
5	0xbede6341	-0.434351
6	0xbe9dbb6e	-0.3080706
7	0x3ef8e67a	0.4861334
8	0x3ea5d736	0.32390755
9	0xbeb575a3	-0.35441312
10	0x3f0ff3db	0.5623147
11	0xbf11ac9d	-0.5690401
12	0xbf22e3ba	-0.63628733
13	0xbfc2dee6	-1.5224273
14	0xbe5a372a	-0.21310106
15	0x3f16913d	0.58815366
16	0xbe44c1f0	-0.19214606
17	0xbf21ad75	-0.631553
18	0x3e0974fe	0.13423535
19	0x3c3135f9	0.010816091
20	0x3ebf67f7	0.37384006
21	0x3ed85c9d	0.42258158
22	0xbe2153fd	-0.15754695
23	0xbf7751d9	-0.96609265
24	0xbe548eb4	-0.20757562
25	0x3da2530e	0.07925998
26	0xbea389fb	-0.31941208
27	0x3e43be7b	0.19115631
28	0x3f05737f	0.5212936
29	0x3efe0268	0.4961121
30	0x3e663d6d	0.2248437
31	0xbf00b14b	-0.5027053
32	0xb8e814cb	-0.00011066495
33	0xbf64c177	-0.89357704
34	0xbea05246	-0.3131277
35	0x3c25c9c5	0.010118906
36	0x3f0a248c	0.53962016
37	0xbe5f696c	-0.21817559
38	0x3edc6321	0.4304438
39	0xbe9304a4	-0.28714478
40	0x3e709345	0.23493679
41	0x3f0df11c	0.5544603
42	0x3be00c7e	0.0068374267
43	0xbebf4b16	-0.37361974
44	0xbf769307	-0.96318096
45	0xbf998792	-1.1994498
46	0x3ee953de	0.45571798
47	0xbec333c9	-0.38125446
48	0xbe4bf7ff	-0.19918822
49	0x3ef8f7fc	0.48626697
50	0x3d4b5b3a	0.049647547
51	0x3d48378a	0.04888109
52	0xbf03d98b	-0.5150382
53	0xbea06b0f	-0.3133168
54	0xbd11fe7f	-0.035643097
55	0x3e6f4a2a	0.23368135
56	0xbe5fbf7b	-0.21850388
57	0xbf59a924	-0.85023713
58	0xbde55933	-0.11198654
59	0x3e8df428	0.2772534
60	0x3df11bff	0.11772918
61	0x3ef6eb78	0.48226523
62	0xbee7541a	-0.45181352
63	0x3bac15d6	0.0052516265

fc2.bias f4 [4]
0	0x3e14425b	0.14478438
1	0xbec1b0aa	-0.37830096
2	0x3ea75b0b	0.32686648
3	0xbe2cc672	-0.16872576
