exp-8/experiment-8-10k.pth (torch_old, 1770 bytes, 4 tensors)

fc1.weight f4 [16, 10]
0.07681357 0.058396436 -0.031059166 -0.03624149 -0.018231802 0.054299872 0.23282073 0.037379086
-1.3596725 0.52447575 0.10080149 -0.2787247 -0.020044127 -0.14182614 0.038436014 0.15365282
-0.35993025 0.14909062 0.40826955 0.6296541 -0.030112647 -0.095653325 -0.013249305 0.006661645
0.016720617 0.008640914 -0.01169432 0.1737909 -0.94406027 2.2581425 -0.037149355 -0.04356407
0.024675863 0.017636402 0.030435892 0.018867377 -0.20048513 -0.12601796 -2.0362952 -0.7490416
-0.043500155 0.2943325 -0.004972574 -0.0043710154 0.008803856 0.011915618 0.06280813 0.4774875
-0.19471665 -1.2532026 0.012111604 -0.012200821 -0.02146243 -0.007461558 0.0046384525 -0.032598685
-0.36265525 0.025723048 -2.2554183 -0.55587083 -0.014286658 0.0040773577 0.0522031 0.017663263
0.019479308 -0.078172974 0.07039997 0.13451642 2.0194523 0.2600149 -0.11247781 0.067938805
0.14351371 0.1148476 -0.11150149 -0.11198872 0.23320249 0.024152018 1.3850651 0.03753743
0.044535168 0.060016263 -0.038689274 -0.010963957 -0.0068135555 -0.011124678 0.12159757 0.16984208
1.398164 1.5401024 -0.02036013 -0.022001723 -0.052779008 -0.003737087 0.014704118 0.063863635
0.29697844 -0.0646424 2.3306394 -0.7345621 -0.1622434 -0.057945143 -0.006929273 0.12572226
0.04098631 -0.1401005 -0.13439608 -0.077911876 -0.40438437 -1.3335147 0.03676868 0.33944276
-0.007356888 0.004731069 -0.016952658 0.015949551 -0.2348727 0.41561776 0.63835454 -1.2139999
0.18078703 -0.20698293 -0.04514361 -0.04592883 0.039059144 0.0070713633 0.24386549 -0.39654744
0.7429145 -0.574384 -0.033712458 -0.031441886 0.04633874 0.012904887 0.011347105 -0.045914102
-0.06580956 0.21099651 -1.107542 2.4375424 0.020504378 0.022051003 0.04097576 0.0016661182
-0.006550041 0.014979834 -0.012537059 -0.22516017 -1.060922 -2.0655122 -0.03364713 0.30813745
-0.0023248254 -0.0041282773 -0.0041516596 0.020172793 -0.28004473 0.66724586 -1.0326686 1.2789139
00000000: 6f50 9d3d 1a31 6f3d cb6f febc f571 14bd
00000010: dc5a 95bc 8b69 5e3d 8f68 6e3e d01a 193d
00000020: c009 aebf 0b44 063f 0371 ce3d 01b5 8ebe
00000030: 9533 a4bc df3a 11be 156f 1d3d 2a57 1d3e
00000040: c748 b8be 36ab 183e b508 d13e 0331 213f
00000050: ccae f6bc e4e5 c3bd 9d13 59bc ee49 da3b
00000060: adf9 883c 9f92 0d3c 8899 3fbc 3ef6 313e
00000070: efad 71bf 6885 1040 ec29 18bd 3d70 32bd
00000080: 0925 ca3c 377a 903c b154 f93c c28f 9a3c
00000090: f94b 4dbe da0a 01be a952 02c0 31c1 3fbf
000000a0: 382d 32bd c0b2 963e f9f0 a2bb bc3a 8fbb
000000b0: 0c3e 103c b939 433c 8da1 803d 3e79 f43e
000000c0: cd63 47be f168 a0bf c06f 463c f4e5 47bc
000000d0: fad1 afbc 1680 f4bb 29fe 973b 3386 05bd
000000e0: f3ad b9be 24b9 d23c c658 10c0 8d4d 0ebf
000000f0: 9612 6abc 5b9b 853b ebd2 553d 8cb2 903c
00000100: 1293 9f3c 2719 a0bd dc2d 903d acbe 093e
00000110: b53e 0140 ac20 853e c45a e6bd 8023 8b3d
00000120: 42f5 123e 3835 eb3d e55a e4bd 585a e5bd
00000130: a2cc 6e3e 74da c53c d049 b13f d9c0 193d
00000140: 826a 363d 9dd3 753d a578 1ebd 2ba2 33bc
00000150: 3f44 dfbb 4844 36bc 2608 f93d 15eb 2d3e
00000160: 0af7 b23f 1322 c53f 4aca a6bc f53c b4bc
00000170: cd2e 58bd eae9 74bb 8ae9 703c f0ca 823d
00000180: 8f0d 983e 3c63 84bd 3229 1540 430c 3cbf
00000190: 2223 26be e357 6dbd f40e e3bb 56bd 003e
000001a0: 43e1 273d 8176 0fbe 209f 09be 4390 9fbd
000001b0: 780b cfbe 9cb0 aabf c19a 163d 71cb ad3e
000001c0: 0d12 f1bb 1507 9b3b 4de0 8abc a2a8 823c
000001d0: 7882 70be dacb d43e 346b 233f 5964 9bbf
000001e0: 3c20 393e 55f3 53be 82e8 38bd de1f 3cbd
000001f0: 7bfc 1f3d e5b6 e73b e0b7 793e 4408 cbbe
00000200: a52f 3e3f d40a 13bf 1316 0abd 35c9 00bd
00000210: b1cd 3d3d 056f 533c 35e9 393c 6d10 3cbd
00000220: 2ac7 86bd 780f 583e f0c3 8dbf b200 1c40
00000230: ccf8 a73c 4ea4 b43c 33d6 273d a661 da3a
00000240: baa1 d6bb fa6d 753c 3d68 4dbc 6390 66be
00000250: 4bcc 87bf 5a31 04c0 93d1 09bd 31c4 9d3e
00000260: 195c 18bb 8046 87bb a50a 88bb 6a41 a53c
00000270: 0662 8fbe a0d0 2a3f 7c2e 84bf 73b3 a33f

fc1.bias f4 [16]
0.021336518 0.12642364 0.85977817 0.5779289 -0.17787383 0.7882816 1.0554554 0.3548821
0.45658696 0.9535481 0.53512204 -0.36420378 0.35451084 0.824119 1.0313475 0.593362
00000000: ecc9 ae3c 3375 013e 6c1a 5c3f 26f3 133f
00000010: 8f24 36be d3cc 493f 2a19 873f 1bb3 b53e
00000020: c4c5 e93e ba1b 743f c2fd 083f eb78 babe
00000030: 7282 b53e 76f9 523f 3203 843f 92e6 173f

fc2.weight f4 [4, 16]
-0.20069097 0.18958265 -0.6921022 -1.006844 -0.23987545 -1.3312036 1.0873367 0.22840735
0.4319576 0.92855763 -0.11843909 0.133553 -0.0005300015 -0.7212445 -0.5785501 -0.4417445
0.73987657 0.14405885 0.04104431 0.9879181 -0.13016206 1.01547 -0.822253 -0.47426525
-0.9048657 -1.1925199 0.05667137 -0.61007255 -0.23037142 0.00867637 0.25101966 0.56136125
0.014358701 0.11745539 1.0698069 -0.80205345 -0.118316874 -0.36066005 -0.07951226 -0.17003812
0.5480349 -0.5241348 -0.46141708 -0.5051968 -0.19055867 0.78555685 -1.3512309 0.61052585
-0.69582903 -0.09615155 -1.4466176 0.24737428 0.6221224 0.28989893 -0.2743075 -0.1740406
-0.9723817 0.18756467 0.45405337 0.5532481 0.12071893 -1.3076534 1.4179635 -1.1557537
00000000: ef81 4dbe f421 423e 9c2d 31bf 44e0 80bf
00000010: e9a1 75be e164 aabf d92d 8b3f 9ee3 693e
00000020: 8c29 dd3e f4b5 6d3f 3290 f2bd 1ec2 083e
00000030: ccef 0aba 7ba3 38bf dc1b 14bf 562c e2be
00000040: 8d68 3d3f 2a84 133e 141e 283d 33e8 7c3f
00000050: 3449 05be ecfa 813f 2c7f 52bf e5d2 f2be
00000060: 47a5 67bf 7ea4 98bf 3d20 683d b72d 1cbf
00000070: 7ce6 6bbe 5527 0e3c a685 803e 5fb5 0f3f
00000080: c240 6b3c 748c f03d 6fef 883f 6053 4dbf
00000090: 1e50 f2bd 6fa8 b8be 53d7 a2bd 791e 2ebe
000000a0: 044c 0c3f b32d 06bf dc3e ecbe 9454 01bf
000000b0: d021 43be 411a 493f 22f5 acbf 6c4b 1c3f
000000c0: da21 32bf 1beb c4bd c42a b9bf af4f 7d3e
000000d0: 6a43 1f3f a26d 943e 0872 8cbe b337 32be
000000e0: 02ee 78bf f410 403e af79 e83e aba1 0d3f
000000f0: 7d3b f73d 3061 a7bf d47f b53f bdef 93bf

fc2.bias f4 [4]
0.10090631 -0.5045413 -0.3246723 0.060363967
00000000: f8a7 ce3d 9e29 01bf 733b a6be 3540 773d
