exp-3/experiment-3-5k.pth (torch_old, 1242 bytes, 4 tensors)

fc1.weight f4 [16, 2]
0	0x3fc90f18	1.5707731
1	0x3f6a38df	0.9149303
2	0xbfa445b5	-1.2833773
3	0xbec49d52	-0.38401276
4	0x3f6297cf	0.8851289
5	0xbf86318c	-1.048387
6	0xbfa90860	-1.3205681
7	0xbd72798b	-0.059197944
8	0x3ed3e852	0.41388184
9	0x3c6b7bc0	0.014372766
10	0xbf8387ff	-1.0275878
11	0xbfbdb413	-1.4820579
12	0xbdcbc9dc	-0.09950611
13	0xbfcc1bb8	-1.5945959
14	0xbf20f1bb	-0.6286885
15	0x3f65fb96	0.89837015
16	0x3fdb243c	1.7120433
17	0xb859e90f	-5.1953884e-05
18	0xbedf0dec	-0.4356531
19	0x3eb34296	0.3501174
20	0x3f8cf732	1.1012938
21	0xbf7cd999	-0.9876953
22	0xbfa0bbd7	-1.2557324
23	0x38bcdbff	9.005516e-05
24	0xbe8d7c27	-0.27633783
25	0x3dea0f90	0.114287496
26	0x3ea2e1f6	0.3181302
27	0x3f08f803	0.53503436
28	0xbf9b4803	-1.2131351
29	0x3fc15868	1.5105104
30	0x3fb0ee99	1.3822814
31	0x3f998845	1.1994711

fc1.bias f4 [16]
0	0x3f8b40f2	1.0879195
1	0x3ea6cc3c	0.32577693
2	0x3f8629a8	1.0481462
3	0xbd7300ce	-0.05932694
4	0xbf29a6eb	-0.6627032
5	0x3f838615	1.0275294
6	0x3dcc0976	0.09962742
7	0x3f20ff3a	0.62889445
8	0xb81edf42	-3.787806e-05
9	0xbef375fe	-0.47550958
10	0x3f7ce062	0.9877988
11	0xb9e6f236	-0.0004404948
12	0xbe9fd157	-0.312144
13	0xbf329661	-0.6976071
14	0x3f9b49bc	1.2131877
15	0x3fb0eb6a	1.3821843

fc2.weight f4 [4, 16]
0	0x3eac6bc3	0.33675966
1	0xbf56745f	-0.8377132
2	0x3edd0d32	0.4317413
3	0xbeca18cf	-0.39472052
4	0xbd0bc918	-0.034127325
5	0xbf6f38af	-0.9344587
6	0xbf97b3d6	-1.1851757
7	0xbfb78930	-1.4338741
8	0x3f3a5843	0.72790927
9	0xbe0adc28	-0.13560545
10	0x3e5b29f1	0.21402718
11	0xbe2cf160	-0.16888952
12	0xbd383388	-0.04497102
13	0x3d88f740	0.06687784
14	0xbf7a56d2	-0.9778873
15	0x3eb780f2	0.35840565
16	0xbf98ded2	-1.1942999
17	0x3f1fd6df	0.6243724
18	0xbf00bb31	-0.5028563
19	0x3f37e2a2	0.7183019
20	0x3e6b58a8	0.22983038
21	0x3e4f1fd7	0.2022699
22	0xbf90e0f9	-1.1318656
23	0x3efb11c7	0.49037
24	0xbe520eac	-0.2051341
25	0x3e6e3512	0.23262432
26	0xbf2b6880	-0.6695633
27	0x3f10efb1	0.5661574
28	0x3e0de39a	0.13856354
29	0x3e460772	0.19338778
30	0x3e668d8f	0.22514938
31	0xbf791d9f	-0.97310823
32	0x3ede6204	0.43434155
33	0xbf4554eb	-0.770827
34	0xbf6d4e01	-0.9269715
35	0xbf62cc8f	-0.8859338
36	0xbd5cf030	-0.05394
37	0xbf2b3832	-0.6688262
38	0xbf0915e2	-0.53549016
39	0x3ebc8a48	0.3682425
40	0xbf454efc	-0.77073646
41	0xbce065c0	-0.027392268
42	0xbf4d5c0d	-0.80218583
43	0xbf19fbec	-0.6015003
44	0x3c25e480	0.010125279
45	0x3e3878e2	0.18014863
46	0x3f224c97	0.63398117
47	0x3eb3015c	0.34961975
48	0xbf150d2b	-0.5822322
49	0xbd89fc9c	-0.067376345
50	0x3f008c3e	0.5021399
51	0xbf548f75	-0.830314
52	0xbdd9ffc4	-0.106444865
53	0x3eeec182	0.4663201
54	0x3f3a4af3	0.72770613
55	0xbf42a28e	-0.7602929
56	0xbf42d716	-0.76109445
57	0xbe69d1d4	-0.2283395
58	0x3e13e04d	0.14441033
59	0xbed697c4	-0.41912663
60	0xbdc2f760	-0.09519839
61	0x3e1e38e0	0.15451384
62	0xbf697260	-0.9119015
63	0xbea74f97	-0.3267791

fc2.bias f4 [4]
0	0x3ca0ec5f	0.01964396
1	0xbd3111db	-0.04322992
2	0xbca8cdf7	-0.020606024
3	0xbc5fa410	-0.013649955
