exp-2/experiment-2-5k.pth (torch_old, 1386 bytes, 4 tensors)

fc1.weight f4 [16, 4]
00000000: f1de fbbe 34e9 51bd a59a 73bf 6492 ac3e
00000010: a84d ef3e 8486 c23e c6ae b4be 6840 debe
00000020: 34c0 63bf 3ca9 733f debf 1ebf 104c 1f3f
00000030: 7075 9cbe 0922 fe3d 4c1a e0be fbd8 573f
00000040: 2cee ae3e b07b aebd 1888 76be d0b9 a43d
00000050: cf8d fdbd 9eee 083f dd0d 98be d0af 5e3f
00000060: e8d6 85bd b06a 55bd 10c3 d63e 2045 e73d
00000070: e62b 2d3f bf63 ffbe 127c ef3e 3fc6 7abf
00000080: ba07 a03c 6dc6 95bf fa26 2b3f 40a6 6bbf
00000090: 38d5 c13d aa7c f13e 0024 583e a25c 9cbe
000000a0: 3ede c9be 00b4 2a3f c0b4 c93e 4a82 953f
000000b0: 883a 32bf 3fe0 88bf 98d8 1bbf ff99 09bf
000000c0: b31d 493f 3eb3 4f3f c638 753f 05c4 b53e
000000d0: a933 44bf 81f4 a0bf 3a82 25bf 5e69 b4bf
000000e0: 17e1 6dbf 4f9a 1bbf 83c0 2ebf 311a 25be
000000f0: d44e 933f bf81 533e 98cd 073f 0411 20bf
-0.49193528 -0.05124779 -0.95157844 0.33705437 0.46738935 0.37993252 -0.35289592 -0.43408513
-0.88965154 0.95180106 -0.62011516 0.6222544 -0.30558348 0.124088354 -0.43770063 0.8431546
0.34166086 -0.08519685 -0.24075353 0.080432534 -0.123805635 0.534891 -0.29698077 0.8698702
-0.06535131 -0.0521037 0.41945696 0.112924814 0.6764511 -0.49880788 0.46774346 -0.9795875
0.019534934 -1.170118 0.6685635 -0.9205055 0.094644964 0.47165424 0.21107483 -0.30539423
-0.3942737 0.6668091 0.39395714 1.1680386 -0.6962056 -1.0693434 -0.6087737 -0.53750604
0.7856094 0.81132877 0.95789754 0.35501114 -0.7664133 -1.2574617 -0.64651835 -1.4094656
-0.92921585 -0.6078233 -0.682625 -0.16123272 1.1508431 0.20654963 0.53048086 -0.62525964

fc1.bias f4 [16]
00000000: ce54 923e a2c5 c4be fe2c 033f cf40 b63e
00000010: 7cf6 c1be 8fcb b33f 28fe cdbe 5db7 3f3f
00000020: 9523 2f3f 3c4b a4be 1caa 9eb8 0c9b 163f
00000030: cf77 923f 3e33 663f bc73 443f 8374 d63e
0.28580326 -0.38432032 0.5124053 0.3559632 -0.37883365 1.4046496 -0.40232968 0.74889165
0.6841367 -0.3208865 -7.5657124e-05 0.5883033 1.1442813 0.8992194 0.76739097 0.41885766

fc2.weight f4 [4, 16]
00000000: fd8a 13bf 80dc 2e3d bcf2 21bf 89af b1be
00000010: 2e0e 373e 710b 03bd 7ea1 1a3e 9c84 293f
00000020: 2879 913e 944c bdbd 108b 51bf db63 86bf
00000030: c3b4 f43e 9d68 3bbf 8cf6 40bf 5379 4b3f
00000040: 94d0 0b3f 1419 36be 384f e13e 2f08 1e3d
00000050: 4821 8b3d 1c91 2d3e 2ce2 f03d 0787 7fbf
00000060: 7fb8 3dbf 26a0 64be 7e0c 68bf 48d3 c13e
00000070: 03c3 4fbf 9335 a63e ee11 0d3f f60a 88bf
00000080: 4c99 61be 0600 203e 7c11 fd3e 0a28 d83e
00000090: 60df ccbc e803 ba3e 40d6 f1bd d7a0 6dbf
000000a0: 5a23 33bf 2045 7c3c bf39 3f3f b396 64bf
000000b0: 9c51 e03e 7d6b 19bf 25db 48bf 2bcf 74bf
000000c0: e3f5 46bf 5e06 28be 4e40 77bf b0d3 13bf
000000d0: 8846 c9bd 5c24 57bf 3cca a63d 04cb d53e
000000e0: 0a30 0f3f 44d2 28be 2d48 0ebe 4d26 013f
000000f0: 6f55 27bf 2733 c93e 6313 903e faf9 05bf
-0.57633954 0.042690754 -0.6326101 -0.34704235 0.17876503 -0.031993333 0.15100667 0.6621797
0.28412747 -0.09243122 -0.8185282 -1.0499223 0.4779416 -0.732065 -0.753762 0.79482
0.5461514 -0.17783004 0.44005752 0.038582023 0.06793457 0.16949886 0.11761889 -0.9981541
-0.74109644 -0.22326717 -0.9064406 0.37856507 -0.8115694 0.3246275 0.55105484 -1.0628345
-0.22031134 0.15625009 0.49427402 0.42218047 -0.025008857 0.36331105 -0.11808443 -0.9282355
-0.6997582 0.01539734 0.7469749 -0.8929245 0.43812263 -0.5992964 -0.7845939 -0.95628613
-0.77718943 -0.16408679 -0.96582496 -0.57744884 -0.09827906 -0.84039855 0.08144042 0.4175645
0.55932677 -0.1648646 -0.1389472 0.5044907 -0.65364736 0.3929684 0.2813979 -0.5233456

fc2.bias f4 [4]
00000000: a912 d63d 5077 6abe e0be be3c 9f24 90bd
0.10452778 -0.22897077 0.023284376 -0.07038235
