exp-9/experiment-9-25k.pth (torch_old, 7472 bytes, 4 tensors)

fc1.weight f4 [64, 20]
000000 68 06 cd 3d 23 08 74 3c 28 66 23 be 00 1d b7 bc
       0.100109875 0.014894518 -0.15956938 -0.022352695
000010 44 b4 12 3e af 0d a8 be 11 86 09 bf 46 a1 82 3e
       0.14326578 -0.3282294 -0.53720194 0.25513667
000020 b3 1a 29 bd e1 4a 40 3c 12 ac c6 be 8a c1 62 be
       -0.041285228 0.0117366025 -0.38803154 -0.22144142
000030 dd 25 7f bd 4e 1c 48 3d 66 ce b0 be 2b a6 62 3d
       -0.06229197 0.04885512 -0.3453247 0.05533425
000040 e3 bb 17 3e d8 e6 78 3d 98 6c 4a bf 13 8e 22 3f
       0.14817767 0.060767025 -0.7907195 0.6349804
000050 6c 59 8a 3d aa 6b a9 3c 35 04 f5 bd 10 eb 56 be
       0.06755337 0.020681221 -0.11963693 -0.20988107
000060 b0 83 43 3d b6 cb cc bb b5 99 2e bd 72 63 81 be
       0.04773301 -0.00624987 -0.042627055 -0.25271183
000070 bd 19 1b be ba 83 2a bf e5 b9 64 bf ab f5 fe 3e
       -0.15146537 -0.6660725 -0.8934615 0.49796805
000080 9a f7 29 3c fe 2a 5a ba f1 73 56 be ea 50 92 bd
       0.010373974 -0.00083224464 -0.20942666 -0.071443394
000090 56 ba fd 3d a5 0e 48 bf 63 3b fc be 02 0f 2d 3f
       0.123890564 -0.78147346 -0.49264058 0.67601025
0000a0 64 22 9f 3a 17 aa 89 3d 87 29 43 3d 57 ba 80 bd
       0.0012140987 0.06721895 0.047647025 -0.062855415
0000b0 22 80 bb 3d 77 14 cb 3d 31 dc 59 3c c3 a4 61 be
       0.09155299 0.09916013 0.013297127 -0.22035508
0000c0 8c 69 19 bf 72 fa bf be dd 46 01 be d2 76 d6 3f
       -0.59926677 -0.37495762 -0.12624688 1.6755011
0000d0 36 98 65 3e 12 81 35 3e 60 76 4d 3e 45 bc 76 bf
       0.22421345 0.17725018 0.20064688 -0.96381027
0000e0 5d 2f 99 bd 53 07 8f bd 10 91 9f bd 67 95 c1 3e
       -0.07479737 -0.06983819 -0.0779134 0.37809297
0000f0 94 6e dc 3c 3f 03 6c 3d 4a 2c 4c be 95 9a 25 bd
       0.026908197 0.057620283 -0.1993877 -0.040430624
000100 5c 87 93 be 25 6d b7 be 89 c0 5c bf 3e e0 dc 3d
       -0.28814209 -0.35825458 -0.86231285 0.10784958
000110 85 e5 e2 3d 3c cf 54 bd 08 97 df be 33 e4 95 3d
       0.110789336 -0.051955447 -0.43669915 0.07318916
000120 88 4e 13 3e c0 89 24 3d 80 3a b9 be c0 c2 70 be
       0.14385426 0.04017043 -0.36177444 -0.23511791
000130 f3 b0 1a 3e 49 83 a7 3d ac 43 4a bf 61 3a 23 3f
       0.15106563 0.081793375 -0.7900951 0.63760954
000140 39 04 33 bc c5 a0 b5 bc a3 ec df bc 36 b2 69 bc
       -0.0109263 -0.022171387 -0.027334517 -0.01426368
000150 bc 53 38 3d f8 72 b7 3d 05 83 44 be ce bc b2 3c
       0.04500173 0.089574754 -0.19190605 0.021818545
000160 ca 34 34 3c e4 8c d1 bc ef 9e 7b bd 81 6f 71 3d
       0.010998914 -0.025579877 -0.061430868 0.05894423
000170 f0 20 89 bd 1f 61 f6 bc 21 66 bb bd 18 ef 0f 3e
       -0.066957355 -0.030075608 -0.09150339 0.14056051
000180 7a 2b 08 be 27 d3 28 c0 01 36 3b bf a8 09 0a bf
       -0.13297835 -2.6378877 -0.7312928 -0.53920984
000190 9c 88 32 3d b7 27 90 3c 8e cd 29 be f9 b4 5b 3d
       0.043587312 0.017597063 -0.16582319 0.053639386
0001a0 4d 8a 42 3d 2e 3a 7c 3d 17 1c b2 bc 4d 61 42 bd
       0.047495175 0.061578922 -0.02174191 -0.047456075
0001b0 66 bb cd 3c 60 04 15 3d a1 70 04 be f6 7c d7 3a
       0.025113773 0.036381125 -0.1293359 0.001644044
0001c0 90 cb 02 bf d9 62 1d bf 03 8e a3 bf d0 33 90 bf
       -0.5109186 -0.61478955 -1.2777714 -1.1265812
0001d0 7f 8f 08 3d f6 85 9a bc ac 61 30 be 6a e7 a0 3d
       0.033339974 -0.018862706 -0.17224759 0.07856639
0001e0 d5 aa 48 3d 29 ea fb 3d 8c 4d 4b 3b 3e 8e 1b be
       0.048991043 0.12300522 0.0031021563 -0.1519098
0001f0 3c 3d 9c 3d 60 e9 c6 3c be 79 07 be 97 fc 68 bd
       0.07628867 0.024281204 -0.13230035 -0.056881513
000200 97 3e 36 3e 3f a2 54 bd eb 00 b0 be c6 e3 bb 3b
       0.17797314 -0.051912542 -0.343757 0.00573394
000210 32 aa 12 3e 49 44 8e bd 6f 22 a8 be 3a d1 9c be
       0.14322737 -0.06946618 -0.3283877 -0.30628377
000220 c1 83 ea 3e a9 4f 28 be b4 21 47 bf c5 eb e7 be
       0.45803645 -0.16436638 -0.777858 -0.45297065
000230 fb 8f 83 3d 6a 86 2e bc ab 8e 08 3d 38 3b ba bb
       0.064239465 -0.010652164 0.033339184 -0.005683329
000240 b6 cd ac 3c dd a9 5f bd 48 6b 1f be 15 d1 0c bd
       0.021094184 -0.054605354 -0.15568268 -0.034379084
000250 0c 60 39 3d 47 0c d6 bd c5 59 50 bd 1a aa 55 3d
       0.045257613 -0.104515605 -0.05086686 0.052164175
000260 a0 8c 8e 3d d8 69 21 3c 45 66 00 be c5 ae 08 be
       0.06960416 0.009851895 -0.12539013 -0.1334792
000270 61 43 c0 3e 46 c1 f6 bf 99 a0 78 bf ab 0e 40 be
       0.37551406 -1.9277732 -0.9712005 -0.18755595
000280 15 c5 7f 3d 7e 9b e7 3d e1 1a c9 be fd 63 07 bd
       0.06244381 0.11308955 -0.3927832 -0.03305434
000290 c5 01 13 3d 93 84 8d bd 14 fe ac be ca 9c a6 3c
       0.03589036 -0.06910052 -0.33787596 0.020338435
0002a0 29 be 64 bd ae e3 78 bc 68 cd d8 be db 0f 07 be
       -0.055845413 -0.015191002 -0.42344213 -0.13189642
0002b0 6b b2 37 3e 11 31 35 3e fe b0 a8 be 93 28 bb 3b
       0.17939155 0.17694499 -0.32947534 0.005711624
0002c0 52 55 47 3d 6e 58 81 3d 4e 07 66 bf 7b 1a 76 bc
       0.048665352 0.06315695 -0.89854896 -0.015020962
0002d0 6b 1f 0f 3a b6 a7 f1 3c 29 7a 1c 3e 5e d2 86 bd
       0.0005459699 0.029498916 0.15280975 -0.06583093
0002e0 c7 1a 0a 3e 63 59 08 3d 87 cd 57 be 44 65 34 bd
       0.13486777 0.03328837 -0.21074496 -0.044041887
0002f0 8e 29 e6 be f1 ba 79 be 5a 30 70 3f 32 c8 09 bf
       -0.4495358 -0.24387719 0.9382378 -0.538211
000300 90 30 09 bf 72 2f de bd b4 39 1a 3f 5d f3 fa be
       -0.53589725 -0.10848893 0.602443 -0.49013796
000310 44 ff 00 be 7d 6d 7c 3e 74 e0 3f 3e 95 3d f7 be
       -0.12597376 0.24651141 0.18737966 -0.4828917
000320 18 1a c5 3c e6 6e 9b 3d 78 4c 80 be 56 3c 2e be
       0.024060294 0.075895116 -0.2505834 -0.17015204
000330 9c cc 23 3d e3 f8 0e 3e 07 47 19 be 66 17 26 be
       0.039990053 0.1396213 -0.14968501 -0.16219863
000340 f5 83 50 3c f9 93 cf 3d 09 f3 43 bd 08 88 bf bd
       0.0127267735 0.101356454 -0.0478392 -0.09352118
000350 80 79 0f bc f7 80 3e 3d 1e ed 51 3d 66 74 e7 bd
       -0.008756995 0.04650971 0.051251523 -0.11301498
000360 c6 06 95 bf 02 26 bd 3e 74 10 e5 3e e1 e4 12 be
       -1.1642692 0.3694306 0.44739115 -0.14345123
000370 76 80 8d bd 84 11 17 3d c6 2a a2 bd a0 3e bb bd
       -0.069092676 0.03688194 -0.07918315 -0.09142804
000380 38 93 3d 3d 2e 72 28 3e 25 39 d7 3d 39 65 41 be
       0.046282977 0.16449806 0.10508946 -0.1888627
000390 bd bd 99 3d 30 72 09 3e e4 7e 9a 3d 0e 22 a4 3c
       0.07506893 0.13422465 0.07543734 0.02003577
0003a0 a0 8d d8 be bf d7 70 bf 64 55 63 3f a7 82 0c bf
       -0.4229555 -0.940792 0.8880217 -0.5488686
0003b0 8b bf 32 3e 1b 01 11 bf a9 58 ef 3e ab bf fb bd
       0.1745588 -0.5664231 0.4674733 -0.12292417
0003c0 29 28 90 bc c1 4c 88 3d d1 2c c9 3d b3 b6 c6 3d
       -0.017597275 0.06655265 0.09823001 0.09702816
0003d0 34 e2 39 3d 19 a0 88 bc bb 5f 1c bd 9a 9f e7 3d
       0.04538174 -0.016677903 -0.038177233 0.113097385
0003e0 b2 5f 94 3e e2 73 a2 3e 81 17 f4 3e 97 7a 71 3d
       0.2897926 0.31729037 0.47674182 0.0589548
0003f0 bd 95 85 3e 12 88 1b 3e 12 72 21 3f 4e 16 36 3e
       0.26090804 0.15188625 0.6306468 0.17781946

fc1.bias f4 [64]
000000 fe 25 4f 3d 62 5b a4 3d 02 ab 35 be b4 7a 37 3e
       0.05057334 0.080252424 -0.17741016 0.17917901
000010 4b cb 98 3e 62 d5 8e bd 3c 0f 8c 3d 25 a9 22 be
       0.298426 -0.06974293 0.06838843 -0.15884836
000020 33 0b 64 3d b2 95 87 3e 19 4b 1d 3f f5 79 88 3d
       0.055674743 0.26481396 0.61442715 0.066638865
000030 00 6a 9a 3c b1 bb 64 be c2 84 8c 3c ac 5a fc bd
       0.018849373 -0.22337224 0.017153148 -0.12321982
000040 64 2b 1f 3e 2f 4d 38 3e 65 0c b5 3a 19 ff f2 3c
       0.15543896 0.17998193 0.0013812898 0.029662656
000050 bd e2 b6 bc 81 57 ac bc ba bf 5c 3e 00 43 f7 3d
       -0.022324914 -0.021037819 0.21557513 0.12073326
000060 cf 0e 0b 3b 58 42 15 3e ad 79 c7 3e eb d5 11 be
       0.0021218543 0.1457609 0.3896002 -0.1424176
000070 eb 04 38 3e 5c 58 a5 bd 92 fb 44 3e 15 75 48 bd
       0.17970626 -0.08073494 0.19236591 -0.048939783
000080 0c 1c 15 3e 87 b1 c8 bb ca c0 fa 3c 5e bd 28 3c
       0.1456148 -0.0061246785 0.030609507 0.010299055
000090 5e b2 27 3c 5a b0 6c 3e 8c ef dc 3d 67 4a db 3e
       0.010235397 0.23114148 0.107878774 0.42830202
0000a0 3e f3 8a bd 15 5b 48 3d 06 73 a1 3d 9e 95 2f 3f
       -0.06784676 0.048914988 0.07883267 0.6858767
0000b0 fe 6a a5 3e 05 61 4f be 87 46 2b be ea 6e b6 3e
       0.3230819 -0.20251854 -0.16726123 0.35631496
0000c0 ba b6 3e bd e6 68 9d bd 98 c7 d1 bd 58 6e 8f 3e
       -0.04656098 -0.076860234 -0.102431476 0.28013873
0000d0 d1 a0 4f 3d 22 65 c4 3e 2a b8 27 3e e5 fa 6c 3e
       0.050690476 0.38358408 0.16378847 0.23142584
0000e0 b9 7c f2 bd e8 44 77 3d eb 41 84 3e 7f 0f 24 be
       -0.11840195 0.06036845 0.2583154 -0.16021536
0000f0 16 d5 60 3e cb 43 2a 3c 63 be 81 3e 60 5d 09 3f
       0.21956286 0.01039214 0.25340566 0.53658104

fc2.weight f4 [5, 64]
000000 d5 f4 e3 be 0b 35 3f bf 8d 9a 45 be a7 41 59 bf
       -0.4452273 -0.7469031 -0.19297238 -0.848658
000010 74 b4 a7 3e 01 cf 54 bf 6b 57 86 be 91 c7 da bd
       0.32754862 -0.8312836 -0.2623857 -0.106825955
000020 ce f2 0b bf a8 97 58 3f 8c c0 a5 3e fe 76 29 3f
       -0.54667366 0.8460641 0.32373464 0.6619719
000030 10 52 fc be 96 ee 19 bf f6 bc 6f bf 9e 9f 9c 3c
       -0.4928136 -0.6012968 -0.93647707 0.01911908
000040 cc 80 1e bf 92 db 8f be 69 9f ec bd 0e fc 3e 3e
       -0.6191528 -0.28097206 -0.115538426 0.18650839
000050 9a e5 e9 3d 6d cb 2b 3d 21 92 04 3f e8 02 f8 3c
       0.11420746 0.04194205 0.51785475 0.030274823
000060 c4 f6 ae 3f 9c 2b 20 3e 44 c7 dc 3f d0 f1 0f bf
       1.3669057 0.15641636 1.7248311 -0.5622835
000070 a7 41 01 3f b9 2e 78 3f ce b6 97 bd 64 c1 45 be
       0.504908 0.96946293 -0.07407914 -0.19312054
000080 0f 8d ab be 84 fc 82 3d a7 0e a3 be 55 bc b8 be
       -0.33506057 0.0639582 -0.31847116 -0.36081186
000090 2c 01 27 be a3 cd 3a 3f 24 d9 89 3e 3d dc bf bd
       -0.16309041 0.72970027 0.26923478 -0.09368179
0000a0 00 ea 08 3f 57 98 9a 3f 27 3b af be 94 8e bb 3e
       0.53482056 1.207774 -0.34224817 0.36632216
0000b0 ea 56 16 3f 6e af b6 3d 0f d2 fa be 64 5c 5b 3e
       0.5872637 0.08920179 -0.48988387 0.21421963
0000c0 6b 90 94 3d 36 b8 cb be d1 77 12 3f 7e 15 2b 3f
       0.07254108 -0.3978898 0.57214075 0.6682967
0000d0 10 a1 c4 bd 0a 60 99 be d0 1b d5 3d c4 b7 8c be
       -0.09601033 -0.29956084 0.104056954 -0.27483952
0000e0 ec 89 ed bc 4f f7 88 3f bd ac 4a 3e bf b6 ca 3e
       -0.02899643 1.0700473 0.19792457 0.3959255
0000f0 c3 e3 97 3e 87 b4 1a bf 34 99 15 3f 9f cf fb be
       0.29665956 -0.6043171 0.58436894 -0.4918184
000100 e8 eb 13 3e 08 41 c6 3e 89 6a bd be 22 bc 32 3e
       0.1444546 0.3872149 -0.36995342 0.1745458
000110 2b 3a 17 3f 9d 85 9b 3e 42 8a 6b 3e 60 07 1f 3f
       0.5907313 0.30375376 0.2300196 0.6212063
000120 11 e6 2d 3e 82 2f 2b bf 8d cb 27 bf a2 e8 a6 3d
       0.16982295 -0.66869366 -0.6554497 0.0814984
000130 93 29 47 3e 6e b5 43 3e 42 8d cd 3e 10 3d 90 be
       0.19449453 0.19112179 0.40146834 -0.28171587
000140 fe b9 d2 3d 5f bb 26 bf ba fc 08 bf 92 e9 b8 be
       0.102893814 -0.65129656 -0.5351063 -0.361157
000150 85 38 a6 be f6 5c 94 be 6e 8a 30 3c 81 4c aa 3d
       -0.32464996 -0.28977174 0.010775192 0.08315373
000160 b4 4a c7 3d 54 0b ef bd 5a 5e cb be 5a 35 36 3e
       0.09731045 -0.116720825 -0.39720422 0.1779379
000170 b1 5a 9c bc 9b 28 7a bf 85 4f 6c be 2e af 89 3e
       -0.019086214 -0.9771821 -0.2307721 0.26891464
000180 c3 0a d2 bc fd c2 17 bf 06 6a 00 bf 1c d1 3e be
       -0.025639897 -0.59281904 -0.5016178 -0.18634456
000190 76 d0 98 bd 1d 5b df be 0f 98 eb be 22 74 92 bf
       -0.07461636 -0.436242 -0.4601445 -1.1441691
0001a0 45 79 23 3e 9e f9 cd be b9 ef 05 3e 35 2d 02 3f
       0.1596423 -0.40229505 0.13079728 0.5085023
0001b0 ce 6e 1f bf 09 15 ea 3d 7c e0 32 be e6 a9 d3 be
       -0.6227845 0.114297934 -0.17468446 -0.4134056
0001c0 29 99 b2 3e 4a 3e 22 bf c5 45 a9 3b 7c 23 43 be
       0.34882477 -0.63376296 0.005165788 -0.19056505
0001d0 64 db d7 3d 5e a0 91 bf 55 80 3e 3e 50 41 8e bf
       0.10539892 -1.1377065 0.18603642 -1.1113682
0001e0 88 84 f0 be 1f 2b 0a bf bf f6 41 bd 83 38 9d bd
       -0.46976113 -0.5397205 -0.047354456 -0.076767944
0001f0 5d 14 95 bc bd b5 ba be ae ee 62 3e 87 13 3e bf
       -0.018198187 -0.3646678 0.22161362 -0.74248546
000200 56 e1 30 3e 97 7a 14 3f d6 97 a3 3f d1 88 81 3e
       0.17273459 0.5799956 1.2780712 0.25299695
000210 ae 9d 76 3e 15 a5 26 bf d3 a8 b1 be 1f 78 54 be
       0.24083588 -0.65095645 -0.34699115 -0.20748948
000220 f5 38 1e bd 3d 19 78 bf 60 b7 04 3e d8 74 15 bf
       -0.038628537 -0.9691351 0.12960577 -0.58381414
000230 5f 9a f9 3c fd 16 10 bf 32 3f 2b 3e fd 73 38 be
       0.030469118 -0.5628508 0.16723326 -0.18012996
000240 28 b1 0a 3f 85 39 f5 3e ef 9b fb 3e 1c e3 c4 3e
       0.5417657 0.47895446 0.49142405 0.3845452
000250 c5 de 44 3d ae e7 04 3f 88 e7 d7 3d 47 c4 3f bf
       0.048064012 0.51916015 0.10542208 -0.7490887
000260 f8 26 f5 be e3 17 d7 be 46 25 cc be 50 37 0c bc
       -0.47881293 -0.42010412 -0.39872187 -0.008558109
000270 7e f7 9f bf 94 d6 8f bd 98 9a ae 3f fe 8b f2 be
       -1.2497404 -0.070233494 1.3640928 -0.4737243
000280 be be 21 bc 71 9b 96 be fb 27 2c 3f d4 40 bc 3f
       -0.009872137 -0.29415467 0.67248505 1.4707284
000290 e3 bb 88 be 27 3f 98 bd 16 a2 e4 3e c0 c6 ea 3e
       -0.26705846 -0.0743392 0.44654912 0.4585476
0002a0 07 87 21 bf 6d d6 f4 be 28 f9 29 3f 2f 20 87 3e
       -0.6309666 -0.47819844 0.6639581 0.26391742
0002b0 30 a4 60 3f d3 b6 99 bf 30 98 fd 3d 22 7e 9a 3f
       0.8775053 -1.2008919 0.12382543 1.2069743
0002c0 fa 3e bb be f4 59 cd 3e 92 5f 24 be a1 1b 06 bf
       -0.36571485 0.4010769 -0.16052082 -0.5238591
0002d0 0c f1 15 bf 25 23 24 3f aa 15 39 bf 17 ae f7 3d
       -0.58570933 0.64116126 -0.7229868 0.12093752
0002e0 5e b9 82 be 8a 9c 10 be d4 84 5b bf e1 41 f9 3e
       -0.2553205 -0.14122215 -0.85749555 0.48683074
0002f0 45 c0 86 3e cb ec 5f 3f 1f 12 59 bd 4d 37 87 3f
       0.26318565 0.8747069 -0.052995797 1.0563751
000300 e2 1c e9 bd 3c cb 20 bf 97 1d 9b be 89 ae 04 bd
       -0.11382462 -0.6281011 -0.30296013 -0.032393012
000310 04 c5 6a c0 16 1b 80 3e 84 68 10 3e e6 a8 a4 bf
       -3.6682749 0.25020665 0.1410237 -1.2864044
000320 f0 96 d4 3c 7e d3 6f bd e4 15 b9 3b 08 46 7d 3d
       0.025950879 -0.058551304 0.0056483615 0.061834365
000330 6e 67 c6 3c 3e 61 87 3e 48 60 52 3e 92 4a 91 3e
       0.024219241 0.26441377 0.20544541 0.28377205
000340 ac 83 9a be 07 7f 72 3e fb 57 81 3e b7 e5 b3 be
       -0.30178583 0.2368127 0.25262436 -0.35136196
000350 b7 50 25 3f 5c 44 5e 3e 3d 75 3d bf f6 34 d6 3e
       0.64576286 0.21705765 -0.74007016 0.4183728
000360 e4 26 6e bf 23 15 2c 3e 77 0f 0b bf b1 ee fa 3d
       -0.9302809 0.16804938 -0.5432047 0.12252558
000370 f2 c7 6d bd 2c 61 2b 3e 45 47 e0 be 0c 5d 8d 3d
       -0.05805201 0.16736287 -0.43804374 0.06902513
000380 11 fa 77 3e 83 ea c2 3e 8b ea af bd 3d da 1f bf
       0.24216487 0.38069543 -0.085896574 -0.6244238
000390 ab ce 8f 3e ad 9f 90 bd e1 f8 01 bf 78 d9 1a 3e
       0.28087363 -0.07061706 -0.50770384 0.1512202
0003a0 41 85 df be 05 01 96 be 13 19 4e be 46 ea 2b c0
       -0.43656352 -0.29297653 -0.20126753 -2.686174
0003b0 d9 f0 c9 be 7f d5 c6 3d ba c1 a2 3d 8d eb cb be
       -0.39441565 0.0970869 0.07947107 -0.39828148
0003c0 13 9e 5f be a4 b8 3f 3e 99 d7 06 be cb b2 72 bd
       -0.21837644 0.18722779 -0.13168181 -0.05925254
0003d0 81 6c 83 3e e1 8c 81 3e 80 1d 95 3e 90 50 ab 3e
       0.2566872 0.25302795 0.2912407 0.33459902
0003e0 34 d2 dd 3e 20 d6 9d bd 36 9d bf 3e 8e b1 05 3d
       0.43324435 -0.07706857 0.3742463 0.032640032
0003f0 92 e4 39 be a1 8b 42 3c 12 77 a5 bf bd 12 50 3e
       -0.18153599 0.01187411 -1.2926962 0.20319648

fc2.bias f4 [5]
000000 a5 59 cd 3d 90 e8 42 be fe d2 ea bd b1 d7 bb 3d
       0.10026864 -0.19034028 -0.11466025 0.09171999
000010 95 00 05 bd
       -0.03247126
