exp-9/experiment-9-10k.pth (torch_old, 2863 bytes, 4 tensors)

fc1.weight f4 [32, 10]
0	0xbe6243c1	-0.22096159
1	0xbdc7e3c9	-0.097602434
2	0x3dab23c6	0.083564326
3	0x3e312249	0.17298235
4	0xbeb154aa	-0.34634906
5	0xbec634ed	-0.38712254
6	0xbfe5051f	-1.7892188
7	0xbd8f1e0c	-0.06988153
8	0x3e40ac42	0.18815711
9	0x3c0f2843	0.0087376265
10	0xbd077633	-0.033071708
11	0x3ce167a1	0.027515234
12	0xbde3449a	-0.11097069
13	0xbd122d18	-0.035687536
14	0x3d8210eb	0.06350883
15	0xbd7f03b0	-0.062259376
16	0x3fe55b7f	1.7918547
17	0xbe661e2e	-0.2247245
18	0x3e2957a0	0.16537333
19	0xbdd64b3b	-0.10463568
20	0x3e13ac9c	0.14421314
21	0xbdbedd95	-0.09319607
22	0x3d0af32b	0.03392331
23	0xbe24c625	-0.16091211
24	0x3d81dfd1	0.06341518
25	0xbee24752	-0.44195038
26	0xbf2af18e	-0.66774833
27	0xbfb18def	-1.387144
28	0xbe348b4c	-0.17631263
29	0xbedc899d	-0.4307374
30	0xbcb4336e	-0.02199718
31	0xbcec3718	-0.028834864
32	0x3d7ca60d	0.061681796
33	0x3d5ae039	0.05343649
34	0x3e7ae51e	0.24501464
35	0xbebad9c9	-0.36494282
36	0x400116e8	2.017023
37	0xbfa5bc41	-1.2948076
38	0x3d2875ba	0.041127898
39	0x3c83afdd	0.01607507
40	0x3d99d039	0.075104184
41	0x3e155c63	0.14586024
42	0xbe75f50e	-0.24019262
43	0x3d621bb2	0.055202194
44	0x3e1a3c6a	0.15062109
45	0x3e4d0182	0.20020106
46	0x3fdcd562	1.7252619
47	0xbf86f873	-1.0544571
48	0xbe587693	-0.21138982
49	0x3e32865e	0.1743407
50	0x3e2ac2cb	0.1667587
51	0xbe02e0da	-0.12781087
52	0xbdb70306	-0.089361235
53	0xbe0194b9	-0.1265439
54	0xbc264d20	-0.010150224
55	0xbe11aaca	-0.14225307
56	0x3f1d2c96	0.6139616
57	0xc00139ae	-2.0191455
58	0x3d482845	0.04886653
59	0xbc831aaa	-0.016003925
60	0x3e0ab4b1	0.13545491
61	0xbe1dc930	-0.15408778
62	0xbd4532db	-0.048144203
63	0xbd6a0b2d	-0.057139564
64	0x3d773151	0.060349766
65	0x3e63b340	0.22236347
66	0x3f964fa1	1.1743051
67	0x3fc52883	1.5402988
68	0xbce5a267	-0.028031541
69	0xbe10cb2e	-0.14140007
70	0xbde9bb1f	-0.11412644
71	0x3d065ad0	0.03280145
72	0xbea392d5	-0.3194796
73	0xbd1c5d32	-0.038174815
74	0x3dbb80a3	0.09155395
75	0x3cbeda3a	0.023297418
76	0xbfd71474	-1.6803117
77	0x3ece22c7	0.40260908
78	0xbe873de8	-0.26414418
79	0x3dafecd9	0.08590097
80	0x3bc092f4	0.005876893
81	0xbd524234	-0.051332667
82	0xbc9e7608	-0.019343391
83	0xbc49939f	-0.012303262
84	0x3d99ffc5	0.07519487
85	0x3e470005	0.19433601
86	0x3fb4e41e	1.4132116
87	0x400ff301	2.2492068
88	0xbd1496e1	-0.0362767
89	0x3ad6ba80	0.0016382486
90	0xbdeb8308	-0.114996016
91	0x3d8a9899	0.06767387
92	0x3e6f71a9	0.23383202
93	0xbd06da0a	-0.032922782
94	0x3e3a4121	0.18188907
95	0x3d6154a4	0.05501236
96	0xbfc722c2	-1.5557482
97	0xbc7c302e	-0.015392346
98	0xbdf3c3b2	-0.1190256
99	0x3dce04a7	0.10059481
100	0xbdfda8b7	-0.123856954
101	0x3c94486e	0.018100943
102	0x3e5cc47c	0.21559328
103	0xbe4fee06	-0.20305642
104	0x3d5b657f	0.05356359
105	0x3d0add98	0.033902735
106	0xbea7d4f2	-0.32779652
107	0xc0085817	-2.1303766
108	0x3e3dc58a	0.18532386
109	0xbd5e6e1c	-0.054304227
110	0x3bfd5991	0.0077316244
111	0xbe5e21d4	-0.21692592
112	0xbc1df49a	-0.009640837
113	0x3b6ac06a	0.0035820254
114	0x3e65f339	0.22456063
115	0xbe1c09af	-0.15238069
116	0x3fde20bb	1.7353739
117	0xbfe215cc	-1.7662902
118	0xbdd88395	-0.10571972
119	0xbc1bdca4	-0.009513054
120	0xbc940a54	-0.018071331
121	0xbeaa0945	-0.33210197
122	0x3d26cf86	0.040725254
123	0xbe79e701	-0.24404527
124	0xbd9b7e1b	-0.07592412
125	0xbe37968b	-0.17928521
126	0xbf90b716	-1.1305873
127	0x3fa5fcb4	1.2967744
128	0x3e1180ab	0.14209239
129	0x3e2cbe59	0.16869487
130	0x3d00660c	0.03134732
131	0x3dad2c36	0.08455698
132	0xbd99e181	-0.075137146
133	0xbe4e8d51	-0.20171095
134	0x3de9d238	0.11417049
135	0xbdd2f8ca	-0.10301359
136	0x3fb86e05	1.4408575
137	0x3eaf1441	0.3419514
138	0x3b945822	0.004527108
139	0xbd5b6f17	-0.05357274
140	0x3e89e794	0.26934493
141	0xbe2bdeb5	-0.16784175
142	0xbe02cd23	-0.12773566
143	0xbd64fd28	-0.05590549
144	0xbe1ce110	-0.1532023
145	0x3e0d2038	0.13781822
146	0xbff1d701	-1.8893739
147	0x3f42b584	0.7605822
148	0xbe691ad1	-0.22764136
149	0x3db0e559	0.086374946
150	0x3daff7bb	0.08592173
151	0xbcc22025	-0.023696968
152	0x3cbc9bbf	0.023023484
153	0x3c6cd064	0.014453981
154	0x3c6f1248	0.014591761
155	0xbd65a82d	-0.056068588
156	0xbffc10d8	-1.969264
157	0x3d765b1b	0.06014548
158	0x3ddfc391	0.10925973
159	0xbdd1300f	-0.102142446
160	0xbba8bc93	-0.005149433
161	0xbc098eb7	-0.008395842
162	0xbd895c30	-0.067070365
163	0xbd1f6e77	-0.038923707
164	0xbec12ed4	-0.3773104
165	0x3c9cad91	0.019125732
166	0xc007af90	-2.1200905
167	0x3e9ed58d	0.310223
168	0xbcb11eb3	-0.021621084
169	0xbc8ea048	-0.017410412
170	0xba5ffa09	-0.0008544033
171	0x3c8e3586	0.017359506
172	0x3d0ae53a	0.033910014
173	0x3dab1629	0.08353836
174	0x3d0ad77d	0.033896912
175	0xbe2f3cbb	-0.1711301
176	0xbf433911	-0.7625895
177	0xc011d114	-2.278386
178	0x3d4e0452	0.05029709
179	0xbc0fa92e	-0.008768363
180	0x3c40f30c	0.011776697
181	0xbd1fb775	-0.038993318
182	0xbca2a63e	-0.019854661
183	0xbd0b1063	-0.033951174
184	0xbc3ac63f	-0.011399805
185	0x3e3e271f	0.18569611
186	0x3eb03779	0.34417322
187	0x400a51b5	2.161237
188	0xbcf0b61b	-0.02938371
189	0x3c1777ff	0.009244918
190	0x3d70f67d	0.05882882
191	0xbd83789f	-0.06419491
192	0x3da39fa3	0.07989433
193	0x3c973351	0.018457087
194	0xbd93ad03	-0.07210734
195	0x3e96a673	0.29423866
196	0xbfdb47ce	-1.7131288
197	0x3ffe9f54	1.9892373
198	0xbd6c6968	-0.05771771
199	0xbe154de3	-0.14580493
200	0xbd88489d	-0.06654475
201	0xbe83f5f3	-0.25773582
202	0x3c9d0212	0.019166026
203	0xbe070559	-0.13185634
204	0xbe81784c	-0.25287092
205	0xbf06ec85	-0.5270465
206	0xbefcf8bf	-0.49408528
207	0xbf9010ca	-1.1255124
208	0xbdd5f163	-0.104464315
209	0xbe844aae	-0.25838226
210	0xbc12532a	-0.008930961
211	0x3dcc15c4	0.09965089
212	0x3e8faa14	0.28059447
213	0x3e048cb3	0.12944297
214	0x3e828524	0.25492203
215	0x3dc68b6f	0.096945636
216	0x3fe59b0c	1.7937942
217	0xbed7883a	-0.4209612
218	0x3a0d3160	0.00053860806
219	0xbe8cf6cf	-0.2753205
220	0x3b397093	0.002829586
221	0xbc0ff1c8	-0.0087856725
222	0x3e70083d	0.23440643
223	0xbe05d167	-0.13068162
224	0x3e79e6cb	0.24404447
225	0x3ea47508	0.32120538
226	0x3fcf53ba	1.6197426
227	0x3fb6da7c	1.4285426
228	0x3e77e926	0.24210033
229	0x3d8df677	0.06931775
230	0xbd6dc860	-0.05805242
231	0xbcac23d3	-0.021013176
232	0xbcbd4a9e	-0.02310687
233	0x3baa88ed	0.005204311
234	0x3de2157b	0.11039253
235	0xbebd6438	-0.36990523
236	0x4003bb79	2.0583174
237	0xbfbfa5ff	-1.4972533
238	0x3c803a9f	0.015652953
239	0x3d0baee3	0.03410233
240	0x3a5f8cd8	0.0008527762
241	0x3dad432b	0.08460077
242	0xbd51bef9	-0.051207516
243	0x3d967e1c	0.07348272
244	0x3d4be0d9	0.04977498
245	0xbe56efaf	-0.2098987
246	0x3f84dbc5	1.0379568
247	0xc012d76f	-2.294399
248	0xbc125deb	-0.008933525
249	0xbccefec5	-0.025267968
250	0xbda8c435	-0.082405485
251	0x3e839852	0.2570215
252	0x3d9749c7	0.07387119
253	0xbdbb57c5	-0.091476
254	0xbd815c84	-0.06316474
255	0xbe25ef65	-0.16204603

fc1.bias f4 [32]
0	0x3ef045db	0.46928295
1	0x3eb663d8	0.3562305
2	0x3e35440d	0.1770174
3	0x3f001674	0.5003426
4	0x3ddb1735	0.10697786
5	0x3ec15528	0.37760282
6	0x3e814770	0.25249815
7	0x3eec591e	0.4616174
8	0x3f570a9f	0.8400058
9	0x3e6d4771	0.23171784
10	0x3ea4cb59	0.32186392
11	0x3ed74e3c	0.42051876
12	0x3c93acf7	0.018026812
13	0x3e9f106c	0.31067216
14	0x3ea8539a	0.32876283
15	0x3f513502	0.8172151
16	0x3ebc4bcd	0.3677658
17	0x3f15917d	0.5842512
18	0x3f20184d	0.6253708
19	0x3f57019b	0.83986825
20	0x3e8fc8ad	0.2808279
21	0x3ef87a73	0.4853092
22	0x3eba5f08	0.36400628
23	0x3f33d458	0.70245886
24	0x3f224752	0.63390076
25	0xbdc395b5	-0.09550039
26	0x3f2fbe5c	0.6864984
27	0x3e81003c	0.2519549
28	0x3ef1ace7	0.47202227
29	0x3f2cd83f	0.67517465
30	0xbdd94333	-0.1060852
31	0xbd021bf2	-0.031764932

fc2.weight f4 [5, 32]
0	0xbf27db1d	-0.65568715
1	0x3f1972b4	0.5994065
2	0xbe6ed03f	-0.23321627
3	0x3f2af7f6	0.6678461
4	0x3e9baf0d	0.3040699
5	0x3d6c0346	0.05762031
6	0x3e8305ba	0.25590307
7	0xbe548250	-0.20752835
8	0x3ece52cb	0.4029754
9	0xbea4659a	-0.32108766
10	0xbe53c173	-0.20679264
11	0x3ea47db7	0.32127163
12	0xbf13070f	-0.57432646
13	0x3eac4f5e	0.33654302
14	0xbe42bb19	-0.19016685
15	0xbf19fadf	-0.60148424
16	0xbf188084	-0.595711
17	0xbeb9e980	-0.3631096
18	0xbcfe9c0d	-0.03108027
19	0xbf150dff	-0.5822448
20	0xbe5c7137	-0.21527563
21	0x3e80a10e	0.25122875
22	0x3ef994df	0.48746392
23	0x3f10dcaf	0.56586736
24	0x3e7f5700	0.24935532
25	0xbe4d83ce	-0.20069811
26	0xbf2fe0c7	-0.6870236
27	0x3e9c7854	0.30560553
28	0x3e518ac1	0.20463087
29	0x3f1da40b	0.61578435
30	0x3f285f21	0.65770155
31	0xbe0cf5a1	-0.13765575
32	0x3f13a05d	0.5766657
33	0xbe936a3e	-0.28791994
34	0xbd8eddd4	-0.06975904
35	0xbe91fcf2	-0.28513294
36	0xbece4758	-0.40288806
37	0xbe3d36fd	-0.18478008
38	0xbe3bffa1	-0.18359233
39	0x3f0647fb	0.52453583
40	0xbf0f93a6	-0.5608467
41	0x3ecfdde3	0.40598974
42	0x3c13069a	0.008973742
43	0xbf235b9e	-0.6381167
44	0x3e9e78e8	0.3095162
45	0xbeaed23b	-0.34144768
46	0x3f07b179	0.53005177
47	0x3f367671	0.7127448
48	0x3f64000d	0.8906258
49	0x3e09adba	0.13445178
50	0xbe956587	-0.29179022
51	0x3eefa842	0.46808058
52	0x3c9704da	0.01843493
53	0xbe72392d	-0.23654623
54	0xbe38af97	-0.18035732
55	0xbee1b265	-0.44081417
56	0xbee82de5	-0.45347515
57	0xbd0ff70d	-0.035147715
58	0x3f08c5fe	0.5342711
59	0xbed1efb1	-0.41003183
60	0xbe5b012c	-0.21387166
61	0xbecf3f1f	-0.40477845
62	0xbe015107	-0.12628566
63	0xbda97d48	-0.082758486
64	0xbe2268fc	-0.15860361
65	0xbe7bfc6f	-0.24608015
66	0xbe8a40f9	-0.27002695
67	0xbefb007c	-0.49023807
68	0xbe4310d5	-0.1904939
69	0xbefb772a	-0.49114352
70	0x3ed0c42f	0.40774676
71	0x3d28e9a5	0.041238446
72	0x3f73e033	0.95263976
73	0xbe29dec6	-0.16588888
74	0xbeddbf44	-0.43309987
75	0xbf201fbc	-0.6254842
76	0x3eebeb88	0.46078134
77	0xbb942a72	-0.0045216614
78	0x3e684492	0.22682407
79	0xbdcba073	-0.09942713
80	0xbcd7bbca	-0.026334662
81	0xbf371e82	-0.71530926
82	0x3f77a759	0.9673973
83	0x3f296c34	0.6618073
84	0xbe3790ce	-0.17926332
85	0xbe07dd77	-0.13268076
86	0x3e9ff8e7	0.31244585
87	0xbf3f1f82	-0.7465745
88	0xbf3e01b5	-0.74221355
89	0x3f0dfac8	0.55460787
90	0xbeedf6a8	-0.46477246
91	0x3b4be303	0.0031110651
92	0x3f149da2	0.5805303
93	0x3ef866dd	0.48515978
94	0x3dcd7139	0.10031361
95	0x3e83ef99	0.25768736
96	0x3c7dcb55	0.015490373
97	0xbd7a0b00	-0.061045647
98	0x3e6d641c	0.2318272
99	0x3ec9ad9f	0.39390275
100	0x3e28fb9d	0.16502233
101	0x3f10061b	0.56259316
102	0xbe8f4dc3	-0.27989015
103	0xbe6155ab	-0.22005336
104	0xbf81f5b0	-1.0153103
105	0xbe5d759f	-0.216269
106	0x3f1cdcd4	0.61274457
107	0x3ebcc56b	0.36869368
108	0xbc2d5976	-0.010580411
109	0xbe1a932d	-0.15095206
110	0xbe727ef1	-0.23681237
111	0xbdea7e95	-0.11449925
112	0xbe9a8d7a	-0.30186063
113	0x3f77c379	0.9678264
114	0xbf45e1a3	-0.7729742
115	0xbf119f04	-0.56883264
116	0x3eb86df1	0.3602138
117	0x3be68905	0.007035377
118	0xbf16ed68	-0.58956003
119	0x3ec266ee	0.37969154
120	0x3f816732	1.0109618
121	0xbec5323f	-0.38514897
122	0x3f05bb39	0.52238804
123	0xbd9f3095	-0.07772938
124	0xbeb11520	-0.3458643
125	0xbe955020	-0.29162693
126	0xbf08580c	-0.5325935
127	0x3de04c0a	0.10952003
128	0x3c03a3f8	0.008034699
129	0xbddc894d	-0.107683755
130	0x3cf49f20	0.029861033
131	0xbe0fefea	-0.14056364
132	0x3d11c723	0.035590302
133	0xbe013b1d	-0.12620206
134	0xbdba9498	-0.09110373
135	0xbdab6e0a	-0.08370598
136	0xbea6c7f6	-0.32574433
137	0x3e186f40	0.14886189
138	0xbe16eab5	-0.14737971
139	0xbe57e3d9	-0.2108301
140	0x3e876e4d	0.2645134
141	0xbe04b3fc	-0.12959284
142	0xbe033ca7	-0.12816106
143	0xbec843eb	-0.39114317
144	0xbccb426e	-0.02481195
145	0xbe32d6ee	-0.17464802
146	0xbea249b2	-0.3169685
147	0xbe4e5936	-0.20151219
148	0x3df69b9a	0.120413974
149	0xbe80bfd9	-0.25146368
150	0xbc41e711	-0.011834876
151	0xbe9e4457	-0.30911514
152	0xbe566408	-0.20936596
153	0x3dc4e5ab	0.09614118
154	0xbd9bdde0	-0.07610679
155	0x3c9385fd	0.018008227
156	0x3b78eac5	0.003798173
157	0xbeaad616	-0.3336646
158	0x3df255d8	0.1183278
159	0x3dab702f	0.08371007

fc2.bias f4 [5]
0	0x3e1f57ff	0.15560912
1	0x3e07c252	0.13257721
2	0xbdca0545	-0.09864286
3	0x3e3eedbe	0.18645379
4	0xbebf8726	-0.37407798
