exp-9/experiment-9-25k.pth (torch_old, 4143 bytes, 4 tensors)

fc1.weight f4 [32, 20]
0	0xb9beae32	-0.0003636941
1	0x3ce2c51d	0.027681882
2	0xbc85c429	-0.016328888
3	0xbc36da5e	-0.011160461
4	0x3ccc0017	0.024902387
5	0xbd6210a1	-0.05519164
6	0x3e0222fe	0.12708661
7	0xba9003f3	-0.0010987505
8	0x3deeb462	0.11655499
9	0x3d177dea	0.036985315
10	0x3b3358d5	0.002736618
11	0xbeab4670	-0.33452177
12	0x3d5eeeb8	0.05442688
13	0x3c29d192	0.010364907
14	0x3d455486	0.04817631
15	0x3d0e34fa	0.03471849
16	0xbf8f8c89	-1.1214763
17	0xbf840317	-1.0313443
18	0xbe7db853	-0.24777345
19	0xbf5cd868	-0.8626771
20	0x3d9b3724	0.075788766
21	0x3d0ad5e0	0.033895373
22	0x3a983a40	0.001161404
23	0xbd925094	-0.07144275
24	0x3dc4f0c0	0.09616232
25	0x3c0d483c	0.008623179
26	0xbdd46dd5	-0.10372511
27	0x3d4ff87f	0.050774094
28	0x3d0006f5	0.031256635
29	0x3c94a617	0.018145604
30	0x3e5ecdda	0.21758214
31	0xbf86b2cc	-1.0523314
32	0x3c9985da	0.018740583
33	0x3dc7d93d	0.09758232
34	0xbddc2ecf	-0.107511155
35	0xbe35f0b8	-0.17767608
36	0xbe973a8b	-0.29536852
37	0x3e0965c2	0.13417724
38	0xbe90adce	-0.28257602
39	0xbf292192	-0.6606685
40	0x3d886d13	0.06661429
41	0x3e11f271	0.1425264
42	0xbf0af32b	-0.54277295
43	0x3e24f1cc	0.16107863
44	0x3d044091	0.032288138
45	0x3cc58828	0.024112776
46	0x3cea8674	0.028628565
47	0xbcd92b1a	-0.02650981
48	0x3e0ebbb2	0.13938788
49	0x3dccf0d3	0.10006871
50	0x3ea3206c	0.31860673
51	0xbd1be50f	-0.038060244
52	0xbd162e90	-0.0366655
53	0xbd3c57d5	-0.0459822
54	0x3ed37d76	0.41306657
55	0xbdf0cbc2	-0.11757614
56	0xbf0c0f01	-0.54710394
57	0xbf7309ae	-0.94936645
58	0x3fd354f9	1.6510307
59	0xbee0b459	-0.43887594
60	0xbd6f2e69	-0.05839387
61	0xbd945cc6	-0.07244258
62	0xbd041f40	-0.032256365
63	0xbf57fd4b	-0.8437087
64	0x3d560173	0.052247476
65	0x3c71eca6	0.014765894
66	0xbc3ac709	-0.011399993
67	0xbea80f9b	-0.32824406
68	0x3c747940	0.014921486
69	0x3e654517	0.22389637
70	0x3f2889a4	0.6583502
71	0xbf3653b7	-0.7122149
72	0xbdb0f54d	-0.086405374
73	0xbe154bef	-0.14579748
74	0x3e2bef93	0.16790609
75	0xbf512a3f	-0.8170509
76	0x3c0727e5	0.008249258
77	0x3c9268ee	0.0178723
78	0x3ebf51ff	0.37367246
79	0xbe91f286	-0.28505343
80	0x3e0adf27	0.13561688
81	0x3cb315bb	0.021860948
82	0xbf03eb04	-0.5153048
83	0xbeafb32f	-0.34316394
84	0x3dd1be1b	0.10241338
85	0x3d8169d1	0.06319011
86	0xbdbcb2fa	-0.092138246
87	0x3e2073d2	0.15669182
88	0x3e9d12ae	0.30678314
89	0xb8af6a28	-8.3644234e-05
90	0xbfa18e34	-1.2621522
91	0x3e1e053f	0.15431689
92	0x3d245886	0.040123485
93	0x3da39c6a	0.07988818
94	0xbebd3ebb	-0.36961922
95	0xbea6fbd6	-0.3261401
96	0x3d4258ca	0.047447957
97	0xbe041540	-0.12898731
98	0xbf14760c	-0.57992625
99	0xbe095cf0	-0.13414359
100	0x3d7880f9	0.060669873
101	0x3b43fa8b	0.0029903974
102	0xbdf0d0a9	-0.11758549
103	0x3e0d5f4a	0.13805881
104	0x3e10af00	0.14129257
105	0x3dec00a0	0.11523557
106	0x3e833afb	0.25630936
107	0xbf140a57	-0.5782828
108	0xbdf2ae9b	-0.118497096
109	0x3e0966c6	0.13418111
110	0xbf4af343	-0.7927744
111	0x3fc92f39	1.5717536
112	0xbd818175	-0.0632352
113	0xbc8f9a7a	-0.017529715
114	0xbd10daf7	-0.03536507
115	0x3e71128c	0.23542231
116	0xbde9bc61	-0.114128835
117	0x3cfbf008	0.030754104
118	0xbe933d9a	-0.28757936
119	0x3ec3dad4	0.3825289
120	0x3d27ef27	0.040999558
121	0x3af791be	0.0018888039
122	0xbe3acd41	-0.1824236
123	0xbd5429d3	-0.0517977
124	0xbd1031fa	-0.03520391
125	0xbba23bd7	-0.004950981
126	0xbdc47249	-0.09592111
127	0x3dc2f26c	0.095188946
128	0x3e9bc86f	0.30426356
129	0xbf63ae4d	-0.88937837
130	0xbf9e7533	-1.2379516
131	0x3f51b7d6	0.81921136
132	0x3d755190	0.059892237
133	0x3ca35463	0.0199377
134	0xbe84b94a	-0.25922614
135	0x391be38c	0.0001486672
136	0x3c5fc902	0.013658764
137	0xbbfcd39b	-0.007715655
138	0xbe2b156f	-0.16707395
139	0xbbaa3ead	-0.00519546
140	0xbe5fe10c	-0.21863192
141	0xbf746c7f	-0.9547805
142	0x3f94b239	1.1616889
143	0xbeb316fc	-0.34978473
144	0xbd5d50ae	-0.05403202
145	0x3d006842	0.031349428
146	0xbdbd7c87	-0.09252267
147	0xbe132f88	-0.143736
148	0xbddb4204	-0.10705951
149	0xbf69b30f	-0.91288847
150	0x3f5a2f07	0.8522801
151	0xbf009fd1	-0.5024386
152	0x3d153c4a	0.03643445
153	0x3d3a027b	0.04541252
154	0x3ddbf78d	0.10740576
155	0xbdb6e678	-0.08930677
156	0xbc1a3e82	-0.009414317
157	0x3e6f1fce	0.23351976
158	0x3d010589	0.03149942
159	0x3cf5a122	0.02998406
160	0xbc9d35d5	-0.019190708
161	0x3d48570a	0.048911132
162	0xbca89db3	-0.02058301
163	0x3dd5c209	0.104374
164	0xbd48d4f5	-0.049031217
165	0xbdbea586	-0.09308915
166	0xbe11fd3c	-0.14256757
167	0x3e426dc6	0.18987188
168	0xbf980a68	-1.1878176
169	0x3c9cab78	0.019124731
170	0xbf21d7f3	-0.6322014
171	0x3e9b8698	0.30376124
172	0xbdba653b	-0.091013394
173	0x3c38edd6	0.011287173
174	0xbe871412	-0.263825
175	0x3de6f5cb	0.1127735
176	0xbf26a558	-0.65096045
177	0x3e83de45	0.25755516
178	0xbecf7b38	-0.40523696
179	0x3f6059c0	0.8763695
180	0xbeee575b	-0.46551022
181	0x3db064ee	0.08613001
182	0xbf57a9dd	-0.84243566
183	0x3c691bb3	0.014227795
184	0x3d82dbc2	0.06389572
185	0x3d89c3ca	0.06726797
186	0xbe4bfc24	-0.19920403
187	0x3a8969cc	0.00104838
188	0x3de6727a	0.112523034
189	0x3ec170d6	0.377814
190	0xbf85d9b8	-1.0457067
191	0xbe02b149	-0.12762941
192	0xbca62cac	-0.020284973
193	0x3d9e41b6	0.07727377
194	0xbe6ef01f	-0.23333786
195	0xbcf347ac	-0.029697262
196	0x3e3b4614	0.18288451
197	0xbd0fee33	-0.035139274
198	0xbf0f9404	-0.5608523
199	0x3d74b6f2	0.059744783
200	0x3d8621a5	0.06549386
201	0x3c8e187b	0.017345658
202	0xbd054b17	-0.032542314
203	0xbe0094ea	-0.12556806
204	0x3cd76124	0.026291437
205	0x3cdb10f3	0.02674148
206	0xbd96245c	-0.07331154
207	0xbd2dfeea	-0.042479433
208	0xbef4dc47	-0.47824308
209	0xbe112734	-0.14175111
210	0x3e2789db	0.16361181
211	0x3ea9e6e2	0.33183962
212	0x3aebe337	0.0017996792
213	0x3c657364	0.014004562
214	0xbe00ab48	-0.12565339
215	0x3c98a4a0	0.018633187
216	0xbf15cd5a	-0.58516467
217	0xbed10e3f	-0.4083118
218	0xbed73d3d	-0.4203891
219	0x3fc467d2	1.5344183
220	0x3c80c578	0.01571916
221	0x3ca3cb35	0.019994358
222	0xbd5e7dda	-0.05431924
223	0xbd8cb5ef	-0.068706386
224	0xbc8b97b2	-0.017040107
225	0xbc05c5fa	-0.008164877
226	0x3c95dc89	0.018293636
227	0xbaedc4a6	-0.0018140271
228	0x3e8cedbc	0.27525127
229	0xbfe2b198	-1.7710447
230	0xbf7688f1	-0.96302706
231	0xbeb15ec6	-0.3464262
232	0x3c886372	0.016648982
233	0x3cd58034	0.026062109
234	0x3c8bc194	0.017060079
235	0xbd546b27	-0.05186
236	0x3d66ca5e	0.056345336
237	0x3dfda4dc	0.1238496
238	0xbc325fd9	-0.01088711
239	0xbd5b3d1c	-0.053525075
240	0xbda1759b	-0.078837596
241	0xbe8643f0	-0.26223707
242	0x3f03de28	0.5151086
243	0xbebf7fcd	-0.37402192
244	0xbe35bb0a	-0.17747131
245	0xbec91f56	-0.3928172
246	0x3f79d605	0.9759219
247	0xbeb885b4	-0.36039507
248	0x3d5596c3	0.05214573
249	0x3eb1f23d	0.34755126
250	0x3e8a509b	0.27014622
251	0xbe87acef	-0.26499125
252	0x3d644999	0.05573425
253	0x3d1aeb0d	0.03782182
254	0xbd604d6c	-0.054761335
255	0xbe7aa9cb	-0.24478833

fc1.bias f4 [32]
0	0x3d79ce3d	0.0609877
1	0x3dd85a00	0.10564041
2	0x3e954565	0.29154506
3	0xbd829931	-0.06376875
4	0x3e4cffdd	0.20019479
5	0x3ecb9288	0.39760232
6	0x3e18ec3d	0.14933868
7	0x3eab1260	0.33412457
8	0x3e8bc50f	0.2729878
9	0xbe5a8dd1	-0.21343161
10	0x3f1f9be6	0.6234726
11	0xbdba609c	-0.09100458
12	0xbc6e87e0	-0.014558762
13	0x3e1ce200	0.15320587
14	0x3e8433b3	0.25820693
15	0x3e916a84	0.28401577
16	0x3e8df636	0.27726907
17	0x3e2c095b	0.16800444
18	0xbd837764	-0.06419256
19	0xbe756812	-0.23965481
20	0xbe57337f	-0.21015738
21	0xbde92189	-0.113833494
22	0x3e485d07	0.19566737
23	0x3d8d94b1	0.06913126
24	0x3e6deae8	0.23234141
25	0x3e4f0d5d	0.20219941
26	0xbdba2651	-0.090893395
27	0x3ddf5173	0.10904207
28	0xbd63c5f8	-0.05560872
29	0x3e3b1d85	0.1827298
30	0x3def0e0d	0.11672602
31	0x3db4d466	0.08829574

fc2.weight f4 [5, 32]
0	0x3d09dbc5	0.033656854
1	0x3c3be08b	0.011467109
2	0x3fb64eac	1.4242759
3	0x3eba28cd	0.36359254
4	0xbf6d4bcb	-0.92693776
5	0xbefc6d3a	-0.49302083
6	0xbf5da0ed	-0.8657368
7	0x3f98bd71	1.1932813
8	0xbf4afc43	-0.7929117
9	0xbf8072aa	-1.0034993
10	0x3dfe7d7f	0.1242628
11	0xbe2027c6	-0.15640172
12	0x3fa73ada	1.3064835
13	0x3f3a386f	0.7274236
14	0x3f627e63	0.884741
15	0xbe5a1b5b	-0.21299498
16	0xbd28d247	-0.04121616
17	0x3e8845e2	0.26615816
18	0xbd8eca86	-0.06972222
19	0xbdd3c571	-0.10340393
20	0xbe87b1ef	-0.2650294
21	0xbf1fcbae	-0.62420166
22	0x3ddce8f5	0.107866205
23	0xbf52f640	-0.82407
24	0x3ee7d894	0.45282423
25	0xbe27e83c	-0.16397184
26	0xbecaeeaf	-0.39635226
27	0x3d914ee4	0.07095125
28	0x3f899ef9	1.075164
29	0x3f38e655	0.7222646
30	0xbf6b8be1	-0.92010313
31	0x3ec7c00a	0.39013702
32	0xbf059338	-0.52177763
33	0xbc9a0c6e	-0.018804755
34	0xbf25927e	-0.64676654
35	0xbe1197d8	-0.1421808
36	0x3e9513f0	0.29116774
37	0xbe57bb07	-0.21067439
38	0x3e887e87	0.26659033
39	0x3d1ce2a3	0.038302075
40	0xbe9f499f	-0.31110856
41	0x3e1d941e	0.15388533
42	0xbfbf6c7e	-1.4954984
43	0x3f174a7f	0.59098047
44	0xbdc3cf1c	-0.09560987
45	0x3fa7b3d4	1.3101754
46	0xbf0c5fe9	-0.5483385
47	0xbfd9eb12	-1.7024863
48	0xc05ad43e	-3.4192042
49	0x3eb679b9	0.35639742
50	0x3e050521	0.12990238
51	0xbd923766	-0.07139473
52	0x3d9ec8fb	0.07753178
53	0x3f055568	0.52083445
54	0xbe192860	-0.14956808
55	0x3d532e61	0.051557902
56	0x3d37da06	0.044885658
57	0x3e4bd168	0.19904101
58	0xbf3a6404	-0.7280886
59	0x3d8c1ea3	0.06841781
60	0x3dbf5438	0.09342235
61	0xc0891989	-4.284367
62	0x3eb4b357	0.35293075
63	0x3f8aadf7	1.083434
64	0xbdfefc79	-0.12450499
65	0xbf27d3bc	-0.65557456
66	0x3e2c534a	0.16828647
67	0xbfaa4c3e	-1.3304517
68	0x3c83835d	0.01605385
69	0x3f4fa0fb	0.8110501
70	0x3eeca9bd	0.4622325
71	0xbf2fb4b5	-0.6863511
72	0x3f17ffbf	0.5937461
73	0x3d398d6f	0.045300897
74	0x3fa3310b	1.2749342
75	0x3de01dc7	0.109431796
76	0xbf8b063f	-1.0861281
77	0x3da79deb	0.08184417
78	0x3e576398	0.21034086
79	0x3e106371	0.14100434
80	0x3f786edb	0.9704415
81	0xbe23335f	-0.15937565
82	0xbf42ec93	-0.76142234
83	0xbdeaca5f	-0.114643805
84	0xbf50c02a	-0.8154322
85	0xbe0f8d32	-0.14018705
86	0x3f132ccc	0.5749023
87	0xbd60959d	-0.054830182
88	0xbfa76c52	-1.3079932
89	0x3fb8db02	1.4441836
90	0x3ed34151	0.4126077
91	0xbf47979c	-0.7796571
92	0x3e4acaff	0.19804
93	0x3e4958c0	0.19662762
94	0xbe3cba83	-0.18430524
95	0xbe9ff2b7	-0.31239864
96	0xbe565e10	-0.2093432
97	0x3e6feb37	0.23429571
98	0xbf2d9bf2	-0.6781608
99	0x3ccfdd5f	0.025374113
100	0xbdd02bfe	-0.10164641
101	0xbf02b250	-0.51053333
102	0xbf4e2598	-0.80526114
103	0xbf2082e3	-0.6269972
104	0x3ebfe96a	0.37482768
105	0x3e39bb2d	0.18137808
106	0xbfc7699e	-1.5579107
107	0xbf8dd51b	-1.108066
108	0xbf0ad066	-0.5422424
109	0xc0b6087a	-5.6885347
110	0xbebcdccb	-0.36887202
111	0x3f49c7b3	0.7882034
112	0x3fe74c02	1.8070071
113	0xbf5eabb3	-0.8698074
114	0x3ea1f96c	0.31635606
115	0xbdb519a7	-0.088427834
116	0x3eb2a9ff	0.34895322
117	0x3cd40dc8	0.025885478
118	0xbda417c2	-0.08012344
119	0x3cdc709a	0.026909161
120	0x3e15092c	0.1455428
121	0x3eb13179	0.34608057
122	0x3e68b639	0.22725762
123	0x3e3e002c	0.18554753
124	0xbf892023	-1.0712932
125	0x3fe91b06	1.8211372
126	0x3e0818b1	0.13290669
127	0x3f1fde67	0.62448734
128	0x3f041d8a	0.51607573
129	0x3dffe273	0.12494364
130	0xbf372202	-0.71536267
131	0x3e25704f	0.16156124
132	0x3e3a33b0	0.1818378
133	0xbcb38215	-0.021912614
134	0x3e125f85	0.1429425
135	0xbeccd3a9	-0.40005234
136	0xbd5ad8c5	-0.053429384
137	0x3e60794c	0.21921271
138	0xbe91c66f	-0.28471705
139	0x3e6e45c5	0.23268802
140	0xbee2aae5	-0.44271007
141	0xbe6a2d4e	-0.22868845
142	0xbe86b449	-0.26309422
143	0x3f0271a5	0.5095466
144	0xbf197350	-0.5994158
145	0x3ec7faf0	0.39058638
146	0x3df95849	0.12175042
147	0x3e991896	0.2990157
148	0x3e2e1e1a	0.1700367
149	0xbcd62b78	-0.026143774
150	0xbd85faf5	-0.06542007
151	0x3e449dfc	0.19200891
152	0x3e266ee5	0.1625324
153	0xbfc66915	-1.5500818
154	0x3ddbeb81	0.10738278
155	0x3e351812	0.17684963
156	0xbf0cc995	-0.5499509
157	0xbe932d10	-0.28745317
158	0x3c71a7c4	0.014749471
159	0xbec5bdeb	-0.38621458

fc2.bias f4 [5]
0	0x3e08d6da	0.1336321
1	0xbe36029e	-0.17774436
2	0x3e935060	0.2877226
3	0xbdc98a74	-0.09840861
4	0xbd26e89f	-0.04074919
