exp-9/experiment-9-10k.pth (torch_old, 4143 bytes, 4 tensors)

fc1.weight f4 [32, 20]
000000 06 80 72 3b 91 11 3f 3d 9c 3c fa 3c 46 e9 2b be
       0.0037002577 0.046647612 0.030546479 -0.16788206
000010 0a 24 e2 3d 45 d8 3c bb 72 03 8c be a4 54 cf bd
       0.1104203 -0.002881543 -0.2734638 -0.10123566
000020 fa 4c 7b 3d bd f8 47 bc 4a 55 17 3d d2 8e 0e be
       0.061352707 -0.0122053 0.036946572 -0.13921669
000030 f0 3c 9a 3d a8 1a 8f 3d 39 9a 9a be db 5e a4 bd
       0.07531154 0.06987506 -0.30195788 -0.08025905
000040 a7 e3 a5 bf af b0 46 3e 70 08 9f 3e 8a 86 40 bf
       -1.2960099 0.19403337 0.31061125 -0.7520529
000050 50 dd 2d be 7d c1 f1 be 8f 24 34 3f 39 3b e5 be
       -0.16978955 -0.47217932 0.70368284 -0.44771746
000060 0b 4d 71 3d f8 f6 85 3d 51 46 41 be f7 8d 07 bd
       0.058911365 0.06541246 -0.1887448 -0.033094373
000070 b8 db 89 bc 0a 12 a8 bc 05 41 8c 3d 0c 25 e2 be
       -0.016828403 -0.020516414 0.06848339 -0.4416889
000080 d6 fc fc bd 91 d0 ba bd 63 13 fc 3d ef 38 06 bf
       -0.12352912 -0.09121812 0.12308385 -0.52430624
000090 84 e5 8a 3d a4 c9 1d 3e 9e f4 1d 3f 2e ac e7 be
       0.06782058 0.15408951 0.6170138 -0.4524855
0000a0 24 bc 92 3d 44 59 23 3e 6e 90 2d bc 45 ca a5 be
       0.07164791 0.15952021 -0.010593517 -0.32380882
0000b0 2d dc 8c 3d c2 8a e7 3d 9e 1f 92 3d 9c b9 f5 be
       0.06877933 0.11305763 0.07134937 -0.4799317
0000c0 ff 92 4a 3e 7b f0 cd 3c 7f 3d 34 bd 95 be db be
       0.19782637 0.025139084 -0.04400396 -0.4291884
0000d0 71 76 d2 3d 7d ba 89 3d 6f cc 83 be f5 b2 0e bf
       0.10276497 0.06725023 -0.25741908 -0.55741817
0000e0 89 6e 0d 3f 94 29 59 3d 77 14 b1 3e cd 23 7f bf
       0.5524679 0.053018168 0.34585926 -0.99664
0000f0 4b 01 d3 3b 38 ed ed bc 84 e5 75 3d 8c fa dd 3c
       0.006439363 -0.029043779 0.060033336 0.02709701
000100 d5 67 0c 3c 66 ea 81 bc a8 e4 d4 bd dc 88 c8 ba
       0.008569677 -0.01585884 -0.10395175 -0.0015299576
000110 28 6d bf bc 58 be 3a 3c b1 32 93 3d a6 2d 8d bd
       -0.02336748 0.011397921 0.07187403 -0.068934724
000120 61 1f af 3c 22 02 9f 3c a6 28 d6 bd 54 42 a8 bd
       0.021377267 0.019410197 -0.10456972 -0.08215776
000130 04 7e 16 3f 02 5d f7 3e ac 13 41 3f 66 59 f0 3e
       0.58786035 0.48313147 0.7542064 0.46943206
000140 90 35 66 bd 5c 13 39 3e da 55 2d 3e 66 fc 96 be
       -0.056203425 0.18073791 0.16927281 -0.2948944
000150 ed 87 11 bc ed 29 d9 3a 6b eb 32 3e 2a 63 6c be
       -0.008882505 0.0016568281 0.17472617 -0.23084703
000160 90 d7 b6 3c 8d 22 60 3d 59 1d da 3c 48 1b 80 be
       0.022319585 0.05472045 0.026625322 -0.25020814
000170 d4 7c fa 3d 38 d4 ed be 61 1a 16 3f 9e b7 d4 be
       0.1223084 -0.46450973 0.58634 -0.4154634
000180 af 19 94 3e 2a 0d 5a bf 0f 40 16 3f c6 ef 2a bf
       0.28925845 -0.85176337 0.58691496 -0.66772115
000190 e6 d6 3c bc 63 33 16 3e 13 0d bd be 07 75 e6 bd
       -0.011525845 0.1466804 -0.36924037 -0.1125279
0001a0 06 ff 6f bc 64 15 00 3e 35 20 24 be 13 88 6f be
       -0.014648205 0.1250816 -0.16027911 -0.23391752
0001b0 cf 91 97 bd 92 9c 57 3d 42 3e 88 bd b1 4a 2d be
       -0.07400858 0.05263955 -0.066525 -0.16923024
0001c0 d1 56 a6 3d 3d 91 2d 3d 7c 0d ed be 88 d1 44 be
       0.08122028 0.04237484 -0.4629935 -0.19220555
0001d0 3c f4 d1 3d c6 86 f2 3e c9 d3 04 bf 27 70 2e bf
       0.10251662 0.4736845 -0.5188566 -0.6813988
0001e0 ea 97 0f 3e 87 92 99 3d 67 f8 f3 3d 3e c1 4f be
       0.14022794 0.07498651 0.11912613 -0.2028856
0001f0 a6 ad 98 3d ca 88 26 3d 56 4d 4b bc 8b e0 2c 3e
       0.07454996 0.040657796 -0.012408575 0.16882531
000200 0c 99 08 3d 07 d1 d5 bd bc 9a 20 3e d1 7c 45 bd
       0.033349082 -0.104402594 0.15684026 -0.048214737
000210 d3 0e 1d 3e 2c 87 db 3d 04 46 7a 3e f3 0d b5 be
       0.15337686 0.10719141 0.24440771 -0.35362205
000220 9c f0 bf 3e a8 aa 92 bd 70 33 54 3f 00 69 23 3f
       0.37488258 -0.07161456 0.8289099 0.6383209
000230 64 61 18 3c 07 e5 b9 3c 17 1e 9e bd a2 e6 00 be
       0.0093005635 0.022692217 -0.07720583 -0.1258798
000240 31 47 c9 bb 6e 0c 94 bc 0c bd 04 bb 41 56 32 3d
       -0.00614252 -0.018072333 -0.0020254282 0.04353929
000250 81 6f b7 bb 49 e0 4d bc 3f 82 de 3c 18 eb 08 3c
       -0.005598009 -0.012565681 0.027161716 0.008356832
000260 98 9f ee 39 09 6b 75 bb e3 7e 99 3c f9 8f a3 bb
       0.00045513804 -0.003744783 0.018737262 -0.004991528
000270 10 40 f6 be ca 60 9f bf 8c 17 75 3f 9f 5f 13 bf
       -0.4809575 -1.2451413 0.95739055 -0.5756778
000280 15 7a 33 3c 92 e3 6e 3d 46 3a a4 bd a6 66 41 bc
       0.0109544 0.058322497 -0.08018927 -0.011804258
000290 9a 71 80 3d 0d 8f a3 3c 10 b7 12 be fa 30 66 bd
       0.06271668 0.019965673 -0.14327645 -0.05619905
0002a0 ef 46 8e 3d fa 27 95 3c 39 67 3c be 60 bb 53 3c
       0.06947123 0.018207539 -0.18398751 0.012923092
0002b0 c2 b6 99 3c 85 4e f7 3d 23 7f 1b be b1 ea 34 3d
       0.018763904 0.12075523 -0.15185218 0.04416913
0002c0 e3 1f ce 3e 8b 03 a7 bf 63 7b 35 bf 62 30 25 bc
       0.40258703 -1.3047956 -0.708914 -0.010082336
0002d0 fd 2a 20 bf c3 1a 08 be 23 6d 0f bf cb a4 b2 be
       -0.62565595 -0.13291459 -0.56025904 -0.34891352
0002e0 b4 93 2b 3c c2 40 a9 3d 00 29 8d bd 55 a4 2b be
       0.010472227 0.08264305 -0.06892586 -0.16761906
0002f0 c3 51 36 bd c5 53 30 3d e6 51 5e 3d fd 81 60 3d
       -0.044511568 0.04304864 0.054277323 0.054811466
000300 c5 dd d6 bb 25 b6 99 3b 82 7d 95 bd 03 6f d1 bd
       -0.0065571987 0.004690903 -0.07299329 -0.10226252
000310 59 89 71 be 77 96 6c 3e a6 06 a2 bc de 73 1d be
       -0.2358755 0.23104273 -0.01977856 -0.15376231
000320 66 d5 d1 3b e8 63 80 3d 9a de ff bd 8c dc f6 3c
       0.006403613 0.062690556 -0.1249363 0.030134462
000330 fc 2e d1 bb 69 20 6d 3b 60 95 a3 3b 86 78 50 3d
       -0.006383775 0.0036182648 0.004992172 0.05089619
000340 fe 06 4c bd f7 da 05 3d cc ab 38 3d b5 00 8a 3d
       -0.049811356 0.032679524 0.045085713 0.06738416
000350 dd bb 3c 3d 7b 2d de 3c 2d c0 ff bd 9d 34 87 3d
       0.046077598 0.027121296 -0.124878265 0.06601832
000360 da 0b 8a 3e 93 4e ad bf 12 d1 4e bf 9b 4a 2b be
       0.26962167 -1.3539604 -0.80787766 -0.16727678
000370 d5 7a fb 3c be 04 27 39 86 e0 89 3d 7f 87 44 bd
       0.03069822 0.00015928128 0.067322776 -0.04798078
000380 91 b8 e6 bc 72 63 3e 3d d8 9b b9 bc 7c 3c 15 be
       -0.02816418 0.046481557 -0.02265732 -0.14573854
000390 6e 47 f4 3b c4 31 ae 3d 59 2e f5 bd 94 98 38 be
       0.007454804 0.08505586 -0.11971731 -0.18026954
0003a0 d1 3b 4c bd 8a 2a a0 3d a1 4d 7e 3e 8f 8f 50 be
       -0.049861733 0.07820614 0.248343 -0.20367263
0003b0 ca a8 3f bf bd 98 d1 3e 89 4b 52 3f e1 b1 5c bf
       -0.74866927 0.40936843 0.8214651 -0.8620892
0003c0 73 a3 d2 bd c6 c4 12 be c2 d0 d4 be 1c 97 0b bf
       -0.10285082 -0.14332876 -0.4156552 -0.5452745
0003d0 d4 c0 c5 3c 15 7f ae bd ff cc 15 3d 60 aa 4b bc
       0.0241398 -0.08520333 0.036572453 -0.012430757
0003e0 03 4c 85 bc 89 ea 8a 3d f5 fb c5 bd 9d 46 81 be
       -0.016271597 0.06783015 -0.096671976 -0.25249186
0003f0 e4 a9 5c bc b6 96 0f 3e 1a e6 c4 bd 0f bb 28 be
       -0.013468239 0.14022335 -0.09614201 -0.16477607

fc1.bias f4 [32]
000000 fe ae 80 3e ba a3 11 3e 55 2c d6 3d 6c e3 d2 3e
       0.25133508 0.14222613 0.104576744 0.41189134
000010 2e c6 a7 3e a0 42 d6 bd 1f 29 ec 3e 6b 01 81 3e
       0.32768387 -0.104619265 0.46125123 0.25196394
000020 ff 69 5d 3e e5 3c 13 3e 91 5f cf 3e 1e 34 09 3f
       0.21622466 0.14378698 0.405026 0.5359515
000030 98 6c 9c be 9f 88 e9 3e 8c d4 c8 bd 10 83 8a bd
       -0.305516 0.45612046 -0.09806165 -0.067632794
000040 7d 3d ee 3e 50 a1 bb 3d d1 38 91 bc 65 3e 8e bd
       0.46531287 0.09161627 -0.017727287 -0.069454946
000050 80 52 d8 3d 22 a8 2f 3d e4 d1 1a 3f ad 0b 51 3e
       0.105626106 0.042884953 0.6047652 0.2041461
000060 20 8f a1 bd 98 ec 39 3e fd 2f a2 bd 87 a8 4a 3d
       -0.07888627 0.1815666 -0.07919309 0.049477126
000070 6c 5a 94 3d b5 e0 2d 3d a1 35 a1 3c e7 be d5 3c
       0.07243809 0.042450625 0.019678893 0.026092006

fc2.weight f4 [5, 32]
000000 d4 df ce 3e 16 e2 04 3f 33 c9 0a 3e b1 4e 58 3e
       0.40405142 0.5190748 0.13553314 0.21123768
000010 0b 75 df 3e e1 97 ee be 05 97 99 3e 37 c1 7c 3f
       0.43643984 -0.4660025 0.2999803 0.9873232
000020 f8 ad 3f be b0 14 d5 be 21 95 43 be 62 bf 07 3f
       -0.18718708 -0.41617346 -0.19099857 0.530264
000030 f0 b2 08 bc d8 73 97 be 10 cc b5 be d6 d7 1c bf
       -0.008343443 -0.2958057 -0.3550725 -0.6126684
000040 86 33 77 be 89 a3 f9 be dc a9 8e be 8e 98 41 3f
       -0.24140748 -0.4875758 -0.27863967 0.75623405
000050 c8 1a f1 3e e4 74 1f bf c5 99 01 3d b6 fb 3f 3e
       0.47090745 -0.62287736 0.031640787 0.18748364
000060 55 57 a9 be 66 11 10 3f 6f 80 b7 be 94 85 73 3f
       -0.33074442 0.5627655 -0.35840175 0.951257
000070 ed 9f 44 3e 5a 12 a6 be d5 6c 3d be a7 96 67 3d
       0.19201632 -0.32435876 -0.18498547 0.056540158
000080 2d f7 6d bf 5e 2f b4 bd b4 9e 3d 3e 32 ec f3 be
       -0.92955285 -0.08798097 0.18517572 -0.4764114
000090 4f 71 f4 3d f3 8b 73 3d 2b ff b5 be 46 6b 1f 3e
       0.119356744 0.059459638 -0.3554624 0.15568265
0000a0 82 ed c6 3e aa 4b f8 bd fd 84 bc 3e 9b 11 72 bf
       0.3885308 -0.12123807 0.36820212 -0.94558114
0000b0 31 08 3a 3e d5 1d 0d 3e ff 38 62 3e 28 62 a8 3e
       0.18167187 0.13780911 0.22092055 0.32887387
0000c0 22 cf 1d bf 02 2a 1e bf 9c b6 a4 3e 26 1d 31 be
       -0.61644185 -0.6178285 0.3217057 -0.17296275
0000d0 49 79 ea bd b1 73 46 be eb 67 c5 be fa 15 40 3e
       -0.114489146 -0.1938007 -0.38555846 0.18758383
0000e0 9f 82 76 3d c5 8a ba be a7 d5 20 3e cb 8c 87 bd
       0.060183164 -0.36433998 0.15706502 -0.06618651
0000f0 59 db 02 be 74 7d ef be ae 91 d3 bc 84 65 ff be
       -0.12778987 -0.467754 -0.025826301 -0.49882138
000100 47 f0 24 be c2 2b 23 bf d0 77 3c bf e3 e4 3a 3e
       -0.16107284 -0.63738644 -0.7362032 0.18251376
000110 a0 ed 44 bf 37 d7 b0 be d2 44 bb 3e 98 7f 96 3c
       -0.76925087 -0.34539196 0.36575943 0.018371388
000120 52 d8 22 3e a9 da c9 3d cf 3d a2 3e a1 5f ee be
       0.15902832 0.09856159 0.3168778 -0.46557334
000130 a5 02 a7 be 5a ab 01 3f d9 08 22 bb 1e d5 ea 3c
       -0.32619205 0.50652087 -0.0024724512 0.028666075
000140 da 8e 52 3f 26 e6 b1 3c e6 83 ea be a0 1c 72 be
       0.82249224 0.021716189 -0.45803756 -0.23643732
000150 64 db 5c bf 98 85 ec 3e ac c4 58 3f b3 ac 07 bf
       -0.86272264 0.46195674 0.846751 -0.52997893
000160 98 28 b6 be 6d fe 6c 3d a7 91 81 bc 37 3e e1 3d
       -0.35577846 0.057859827 -0.015816523 0.10998195
000170 f7 36 e0 be ee 0c 4e 3e 84 a1 9a 3e b4 63 6b 3d
       -0.43791935 0.2012212 0.30201352 0.05746813
000180 ac 08 f3 3e 13 42 8c 3c 28 42 a4 3b ca d4 e4 be
       0.47467554 0.01712135 0.0050127693 -0.44693595
000190 fd a4 39 bf 5a 99 8d 3e 8f 34 91 be 34 1e 3a bd
       -0.7251738 0.2765606 -0.28360412 -0.04543896
0001a0 10 76 39 bf 6e eb 82 3e 1d 09 4a bf 5e c5 ae 3e
       -0.72445774 0.25570244 -0.78920156 0.34134954
0001b0 98 19 0e 3e 18 09 c1 be 64 05 72 3b ea 67 76 3e
       0.1387695 -0.3770225 0.0036929483 0.24063078
0001c0 89 26 18 be c1 e7 c1 3e d7 1a 04 3d 09 1c 9c bc
       -0.1485845 0.37872127 0.03225216 -0.019056337
0001d0 0b 6a 14 bc ce 98 ed 3d 1f 05 10 bf 3d b0 04 bf
       -0.009058486 0.11601411 -0.56257814 -0.5183142
0001e0 63 6b 3a be a2 9f 90 be 37 5a 23 3e 01 9a b6 bf
       -0.18205027 -0.2824679 0.15952383 -1.4265748
0001f0 60 44 75 bd 84 1d 87 3e 77 b4 06 be 00 25 ab 3e
       -0.05987966 0.26389706 -0.1315478 0.33426666
000200 7c 4d 04 bd ee 7d 88 bd b9 96 4a 3d 70 41 9e 3e
       -0.032300457 -0.06664644 0.049460147 0.309093
000210 40 c0 d2 bd fb aa 54 3e 6c 15 e4 bc a5 60 85 bf
       -0.10290575 0.20768349 -0.027842246 -1.0420119
000220 39 9b f2 3d 2c d8 1a 3e 47 08 8d 3e 81 fa 48 3d
       0.118460126 0.15121526 0.27545378 0.049067024
000230 8c ea 16 3e 44 fe a2 3d 21 69 5f 3c 14 87 13 3e
       0.1473791 0.079586536 0.0136359045 0.14406997
000240 81 b8 ab be 29 49 49 3e b7 37 64 3e f9 f3 a1 be
       -0.33539203 0.19656815 0.22286879 -0.3163145
000250 88 fc d6 bd 71 8d 64 be 9d e0 56 be cc 8d 5a 3d
       -0.10497385 -0.2231958 -0.2098412 0.053357884
000260 6d 09 91 3d f9 7b 9a be 50 9e f6 3d 0b b8 35 3e
       0.07081876 -0.3017271 0.120419145 0.17745988
000270 c2 bf 17 3e 43 dc 16 3e 78 be 56 3e 34 33 72 3e
       0.14819244 0.1473246 0.20971096 0.23652345

fc2.bias f4 [5]
000000 e5 7c a8 3d cf bc a5 be d6 2c a4 3e d2 ea 05 3c
       0.08226947 -0.32370612 0.32065457 0.008173661
000010 ff 06 ca 3c
       0.02466154
