exp-9/experiment-9-10k.pth (torch_old, 7472 bytes, 4 tensors)

fc1.weight f4 [64, 20]
-1.1269227 -0.13126764 -0.19222634 0.866843 -1.1586907 -0.064264484 -0.18608262 0.7271029
-0.0035713373 0.00905171 -0.0042211707 0.010471039 0.008074628 0.007205271 0.032390933 -0.06365387
-1.2110137 0.22362581 0.07916934 -0.08070875 -0.026153725 0.21732412 -0.042202298 -0.21384014
0.027901439 -0.8970734 0.6532923 -0.26803604 0.06839626 0.104083605 -0.27669358 -0.08548962
0.032805152 -0.07616289 0.0746622 -0.14983521 -0.10196229 -0.4925549 0.56114745 -0.23012109
-0.0108419005 0.067274176 -0.2706655 -0.029317603 0.06798328 0.030206684 -0.1924103 0.09968867
-0.055146843 0.045062117 -0.11272047 -0.021123402 0.020494154 0.04923059 -0.17422637 -0.039366275
-0.896151 0.6679624 -0.98465186 -0.23722641 0.035878863 -0.034811843 -0.026294708 0.15160276
0.07865861 -0.042616848 0.047226127 0.16433583 0.004653278 -0.002588589 -0.17739142 -0.011591082
-0.1477643 -0.38834015 -0.22095057 0.02052493 0.45278186 -0.7148169 -0.18920186 0.044499792
0.2824509 0.06789674 0.011490439 0.054406587 0.3066318 0.061775785 0.09629962 0.13904546
0.001785994 0.0031418197 -0.021128438 -0.0135655785 0.018082697 -0.0029071346 0.0013313144 -0.016894005
-1.064543 0.83880055 0.1705922 -0.09223128 -0.06245709 0.102814 0.038591076 0.03363587
0.20907797 0.04692171 -0.047387134 -0.55329794 0.016038055 0.045316055 0.00678064 -0.09070164
-0.019074623 0.006771738 -0.0017465053 -0.0062719877 0.3480269 0.046665274 -0.77324 0.8885422
0.23929274 -1.4249849 -0.23237541 0.1333124 0.0021433868 -0.0015758912 0.039446972 0.13171488
-0.003743716 0.020259142 0.012390146 -0.047520712 0.006656854 -0.0038572177 0.01519033 -0.0025874958
0.23241265 -1.3595964 0.0076493914 -0.26047868 0.12387304 0.38588396 0.23554191 0.15443143
-0.027218277 0.0004603895 -0.04615072 -0.09496948 -0.025314933 -0.010916464 0.048501484 -0.017152134
-0.010568882 -0.016440215 -0.012559646 0.0037409924 0.18108161 -0.67525125 0.48090795 0.10823312
-0.68522227 -0.58366174 -0.16422622 -0.38017476 -0.1298682 -0.05746849 0.30747902 0.34582385
-0.1242934 -0.12583718 0.37433472 0.32893977 0.0056047225 -0.13122444 0.4365002 -0.04686328
-0.023256943 -0.10747533 0.35570842 0.36872664 0.08475542 -0.101755485 -0.30169055 0.27627727
0.16181235 0.10676409 0.07599682 -0.3466897 -0.21616478 -0.0022765268 -0.23764627 0.38661268
0.12800682 -0.009274795 -0.13416454 -0.19951768 -0.027441265 0.06302337 -0.4766079 0.8766666
0.099259205 -0.02048081 -0.065802746 -0.0026668818 -0.7310843 0.04629586 -0.36020315 0.33466727
0.03921671 0.03144544 -0.13196157 -0.05662491 0.076338015 -0.03145598 -0.12658678 0.13331486
-1.0218846 0.44821724 -0.5771559 0.67811376 0.09278594 -0.003522105 -0.3356772 -0.04538894
0.15181296 0.059995152 -0.0025210292 0.16533603 -0.005124411 0.09391757 -0.2570745 -0.10909027
0.14692329 0.06950868 -0.11633619 0.07629229 0.1726246 0.13534848 -0.793187 0.8789864
0.13646895 0.11600348 -0.2896049 -0.09598184 0.18911849 0.059365805 -0.2775872 -0.0932305
0.08436943 0.059747316 -0.19305675 -0.20640625 0.17910758 -0.034697827 -0.29082623 -0.12836477
00000000: 013f 90bf 066b 06be fbd6 44be 6ce9 5d3f
00000010: fa4f 94bf 199d 83bd 718c 3ebe 6a23 3a3f
00000020: 190d 6abb a04d 143c bf51 8abb b98e 2b3c
00000030: 724b 043c 321a ec3b 5bac 043d f65c 82bd
00000040: 7f02 9bbf 2afe 643e 8923 a23d a14a a5bd
00000050: 5640 d6bc 378a 5e3e 51dc 2cbd e9f8 5abe
00000060: 8f91 e43c 9aa6 65bf 2a3e 273f 053c 89be
00000070: 5713 8c3d c929 d53d c8aa 8dbe 2f15 afbd
00000080: b25e 063d 4afb 9bbd 7fe8 983d 676e 19be
00000090: 9bd1 d0bd 2830 fcbe 5ca7 0f3f dda4 6bbe
000000a0: 3aa2 31bc 0bc7 893d ab94 8abe 782b f0bc
000000b0: d13a 8b3d 0274 f73c 3507 45be 9329 cc3d
000000c0: a8e1 61bd 0e93 383d fdd9 e6bd fc0a adbc
000000d0: 5be3 a73c 04a6 493d 6668 32be 883e 21bd
000000e0: 276a 65bf 95ff 2a3f 2512 7cbf 7beb 72be
000000f0: b7f5 123d dd96 0ebd 0068 d7bc c13d 1b3e
00000100: c417 a13d 018f 2ebd 2f70 413d a747 283e
00000110: 867a 983b 51a5 29bb 19a6 35be 86e8 3dbc
00000120: 864f 17be 85d4 c6be de40 62be e623 a83c
00000130: 06d3 e73e 3efe 36bf 22be 41be 6a45 363d
00000140: 689d 903e 720d 8b3d 6542 3c3c 71d9 5e3d
00000150: d8fe 9c3e 9b08 7d3d bc38 c53d ef61 0e3e
00000160: 0418 ea3a fde6 4d3b 8c15 adbc 2942 5ebc
00000170: 2a22 943c a085 3ebb 807f ae3a 4c65 8abc
00000180: f242 88bf a2bb 563f b9af 2e3e c1e3 bcbd
00000190: 01d3 7fbd 2590 d23d ad11 1e3d c4c5 093d
000001a0: 8918 563e fb30 403d 0319 42bd efa4 0dbf
000001b0: 3d62 833c 549d 393d 2230 de3b c8c1 b9bd
000001c0: 6242 9cbc 75e5 dd3b feea e4ba 3f85 cdbb
000001d0: 9530 b23e 1624 3f3d 0ef3 45bf 8077 633f
000001e0: 2809 753e e865 b6bf d2f3 6dbe 0c83 083e
000001f0: 1078 0c3b 228e ceba 2693 213d 44e0 063e
00000200: 2259 75bb 80f6 a53c 0a00 4b3c 14a5 42bd
00000210: bd21 da3b 60c9 7cbb dde0 783c fa92 29bb
00000220: 95fd 6d3e 4107 aebf bfa7 fa3b 765d 85be
00000230: 26b1 fd3d 9592 c53e e631 713e 4623 1e3e
00000240: ddf8 debc 6f60 f139 8a08 3dbd 5c7f c2bd
00000250: 4361 cfbc f8da 32bc 7ea9 463d a282 8cbc
00000260: 1b29 2dbc a1ad 86bc f9c6 4dbc 702b 753b
00000270: 756d 393e 44dd 2cbf 9139 f63e 53a9 dd3d
00000280: ba6a 2fbf db6a 15bf eb2a 28be 44a6 c2be
00000290: 2bfc 04be 1464 6bbd e46d 9d3e d30f b13e
000002a0: 8a8d febd 76db 00be cda8 bf3e cb6a a83e
000002b0: d2a7 b73b b35f 06be f47c df3e b6f3 3fbd
000002c0: 5885 bebc 071c dcbd 6a1f b63e bdc9 bc3e
000002d0: 4094 ad3d 2e65 d0bd 2f77 9abe 3774 8d3e
000002e0: 23b2 253e 22a7 da3d 39a4 9b3d 5081 b1be
000002f0: 4d5a 5dbe c831 15bb 8b59 73be 19f2 c53e
00000300: 3814 033e 4ff5 17bc 6e62 09be 5d4e 4cbe
00000310: 81cc e0bc 6612 813d f305 f4be 396d 603f
00000320: 6948 cb3d 5fc7 a7bc 97c3 86bd dac6 2ebb
00000330: 5728 3bbf baa0 3d3d 8c6c b8be 8259 ab3e
00000340: b3a1 203d efcc 003d ef20 07be 86ef 67bd
00000350: 1b57 9c3d fcd7 00bd f79f 01be b183 083e
00000360: 1dcd 82bf bb7c e53e 7dc0 13bf dd98 2d3f
00000370: 8e06 be3d 1ed3 66bb e2dd abbe c1e9 39bd
00000380: db74 1b3e 7abd 753d da37 25bb d94d 293e
00000390: adea a7bb db57 c03d 459f 83be b86a dfbd
000003a0: 0f73 163e 915a 8e3d ab41 eebd 223f 9c3d
000003b0: 81c4 303e cb98 0a3e 4e0e 4bbf 4105 613f
000003c0: 84be 0b3e 3c93 ed3d 1847 94be 2092 c4bd
000003d0: 47a8 413e 8f29 733d e91f 8ebe a2ef bebd
000003e0: e1c9 ac3d 9ab9 743d abb0 45be 295c 53be
000003f0: fa67 373e 4f1f 0ebd 2de7 94be 0e72 03be

fc1.bias f4 [64]
0.08171389 0.13742553 -0.02870627 -0.004274248 0.16960846 0.018422848 0.0900648 -0.031960387
0.21460997 0.11005576 0.15426628 0.22679988 -0.10609998 -0.18739864 0.05990565 0.37297127
0.45057133 0.28284994 0.21082158 0.50828797 -0.12312329 0.10935503 -0.05399151 0.16508344
-0.070086695 0.110316366 -0.06249287 0.097090006 0.24114987 0.1796502 -0.22073147 0.15633893
0.23940875 -0.11727356 0.21754153 0.2058878 0.32521775 -0.20573214 0.41385126 0.14883882
0.36478782 0.28467765 -0.104892954 0.5013369 0.36368042 0.07518412 0.2750496 0.26499736
0.106645614 0.26298335 -0.17156123 0.15107602 0.09356499 0.2990459 0.085666254 -0.07895087
0.0983224 0.056220967 0.120367855 0.25855935 -0.22827338 0.47608232 0.41360694 0.31039825
00000000: 9d59 a73d 47b9 0c3e 6929 ebbc fe0e 8cbb
00000010: d7ad 2d3e 83eb 963c e573 b83d e5e8 02bd
00000020: b7c2 5b3e ea64 e13d fbf7 1d3e 3a3e 683e
00000030: f24a d9bd 6ee5 3fbe a05f 753d 17f6 be3e
00000040: 49b1 e63e b5d1 903e 9de1 573e 291f 023f
00000050: 1028 fcbd 88f5 df3d 3426 5dbd a20b 293e
00000060: 9d89 8fbd 8ced e13d 86f8 7fbd 20d7 c63d
00000070: feef 763e 39f6 373e 6e07 62be 5017 203e
00000080: 9127 753e 1f2d f0bd 35c3 5e3e 40d4 523e
00000090: f182 a63e 72ab 52be 50e4 d33e 3469 183e
000000a0: 78c5 ba3e 45c1 913e 1ed2 d6bd 9d57 003f
000000b0: 5234 ba3e 22fa 993d 4dd3 8c3e bcad 873e
000000c0: 0469 da3d c1a5 863e bfad 2fbe acb3 1a3e
000000d0: 009f bf3d 8b1c 993e ca71 af3d feb0 a1bd
000000e0: 415d c93d f547 663d 6c83 f63d e461 843e
000000f0: 7fc0 69be 10c1 f33e 4ac4 d33e 85ec 9e3e

fc2.weight f4 [5, 64]
-0.0029079837 0.57392913 -0.80158967 -0.16448705 0.11999794 -0.25409827 0.26691255 0.13659889
0.9309323 -0.2595683 -0.7083469 -0.32758918 -0.6899094 -0.088616684 0.64753276 0.59034616
0.7611276 -0.33914328 0.15785904 -0.08061895 -0.14146213 0.20629497 0.84726596 0.2826051
0.109929726 -0.08573965 -0.34007892 0.43891957 0.42988366 -0.06112416 -0.48762107 0.6403772
-0.23364589 -0.2868203 -0.29397863 -0.21121936 -0.4811097 -0.33871305 0.16395229 -0.94373995
0.19648188 0.31004974 -0.36933678 0.622348 0.67880285 -0.07395479 -0.70580614 0.05961564
-0.025343228 0.46751532 -0.3345574 -0.04465261 -0.30302814 0.6562454 0.38165823 0.1558386
-0.049548954 0.12091793 0.30535802 0.013731398 -1.1131884 0.3465205 0.38117704 -0.18191361
-2.1058059 0.019720655 -0.3327609 0.14121597 -0.98864615 0.21105397 0.6025684 0.06899382
-0.5845394 -0.08669763 -0.9208519 0.005887524 0.23826475 -0.01370396 -0.6531696 0.29892552
-0.40890557 -0.46565124 -0.1189566 -1.1689402 0.0030595849 -0.18888676 -0.14508955 0.08753315
0.26163828 0.3863239 -0.28142136 0.54778504 0.11479745 -0.27424377 0.2588797 0.46151105
0.119157575 0.19033533 -0.4895509 -1.3089272 0.1604202 0.34061593 -0.23483412 0.30544823
-0.75195855 -0.3145099 -0.26717943 -0.3393405 -0.09685447 0.10277634 0.28040192 0.15825231
-0.06345483 0.34070155 -0.16141002 -0.02930677 0.25631684 -0.4235845 -0.14468297 0.1262573
0.4334049 0.17751311 -0.24406737 -0.018155696 -0.42583275 0.2373575 -0.13156202 -1.0570327
0.8450103 -0.29365778 0.0753197 0.12054731 0.13798861 0.44381365 0.0065665883 -0.23633668
0.6958783 0.36795428 0.54501843 0.32277665 0.057560436 -0.5991745 0.83545077 -0.13024658
-0.27072588 0.45082632 0.040663123 0.31177452 0.41586563 -0.20807572 -0.50593174 0.15393166
-0.41044974 -0.39212468 0.07245045 0.2690255 -0.37924105 0.025843991 -0.110096894 -0.1239583
0.274809 -0.23864506 0.6816442 0.27186507 0.2873305 -0.2727257 1.0426836 -0.07044413
-0.1580181 0.15692692 0.2288974 -0.5893759 -0.054278508 -0.51194257 0.28201026 -0.39755425
0.6192813 -0.112927854 -0.32019395 -0.4142134 -0.072505884 -0.19854084 0.0589998 -0.2803763
0.2373663 -0.7189133 -0.04261418 -0.6678314 0.41081432 -0.039627157 0.31935772 0.5216173
0.24236989 -0.3981559 0.2936854 -0.46560156 0.1955373 -0.32992542 -1.1275325 -0.5032122
-0.7649692 -0.158108 0.12921703 -0.207411 0.17013344 0.31238583 -0.21811801 -0.87678665
-0.19597875 -0.089445695 -0.056508143 0.58286923 -0.054189008 0.2807725 -0.24244635 -0.836479
-0.5124076 -0.41000777 0.13336836 0.274854 -0.16821623 -0.1728496 0.08490458 -1.4115113
-0.13426599 0.25803584 -0.21797203 0.35007766 0.059201766 0.11274482 -0.42455775 -0.20965132
0.50840014 -0.14280196 0.07683992 0.054656405 -0.9054538 0.13434042 -0.10230197 -0.596354
-0.61101776 -0.14881414 0.31032434 0.22800642 -0.069494195 -0.008755291 -0.17951752 -0.16007471
-0.8222993 0.17413016 -0.059967425 0.18429516 0.2929057 -0.6947507 -0.16841327 0.34493396
00000000: df93 3ebb 05ed 123f fb34 4dbf 4b6f 28be
00000010: 7bc1 f53d 2b19 82be c3a8 883e 94e0 0b3e
00000020: 9451 6e3f 23e6 84be 3956 35bf c5b9 a7be
00000030: e79d 30bf aa7c b5bd b5c4 253f ed20 173f
00000040: 42d9 423f 30a4 adbe cda5 213e 8c1b a5bd
00000050: 73db 10be fd3e 533e 6ce6 583f 9eb1 903e
00000060: d622 e13d 4598 afbd d31e aebe 11ba e03e
00000070: b619 dc3e 545d 7abd 78a9 f9be c3ef 233f
00000080: de40 6fbe 1cda 92be 5e84 96be e349 58be
00000090: 0354 f6be cc6b adbe 1ce3 273e f198 71bf
000000a0: 8c32 493e d7be 9e3e b619 bdbe 3352 1f3f
000000b0: 06c6 2d3f 9c75 97bd b6af 34bf 882f 743d
000000c0: 9a9c cfbc 2b5e ef3e 1c4b abbe a8e5 36bd
000000d0: 8126 9bbe b3ff 273f b568 c33e 2794 1f3e
000000e0: d8f3 4abd d2a3 f73d e357 9c3e a8f9 603c
000000f0: f57c 8ebf 236b b13e a329 c33e 9047 3abe
00000100: 86c5 06c0 368d a13c a35f aabe eb9a 103e
00000110: ea17 7dbf 881e 583e ec41 1a3f a24c 8d3d
00000120: 60a4 15bf 878e b1bd f3bc 6bbf 22ec c03b
00000130: adfb 733e 9386 60bc 1f36 27bf c40c 993e
00000140: 125c d1be d769 eebe 859f f3bd d59f 95bf
00000150: 5183 483b 886b 41be 5b92 14be 9544 b33d
00000160: 74f5 853e 3fcc c53e 7616 90be a43b 0c3f
00000170: ed1a eb3d ae69 8cbe e18b 843e 2d4b ec3e
00000180: e308 f43d 44e7 423e 6aa6 fabe ed8a a7bf
00000190: 3145 243e 3665 ae3e 5b78 70be b663 9c3e
000001a0: 5b80 40bf 7107 a1be becb 88be 0abe adbe
000001b0: a35b c6bd 677c d23d d790 8f3e e50c 223e
000001c0: 9bf4 81bd 6f70 ae3e ab48 25be c014 f0bc
000001d0: f63b 833e 11e0 d8be c627 14be 9849 013e
000001e0: 3fe7 dd3e ffc5 353e ccec 79be 41bb 94bc
000001f0: c006 dabe d80d 733e 32b8 06be d94c 87bf
00000200: 9852 583f 505a 96be 3741 9a3d 82e1 f63d
00000210: e34c 0d3e 8b3b e33e 892c d73b 3e02 72be
00000220: 1525 323f 8164 bc3e 5486 0b3f fb42 a53e
00000230: 7ec4 6b3d 8063 19bf 1ae0 553f 5c5f 05be
00000240: 959c 8abe b5d2 e63e 608e 263d e9a0 9f3e
00000250: 57ec d43e cd11 55be be84 01bf 43a0 1d3e
00000260: 7826 d2be 91c4 c8be e760 943d b6bd 893e
00000270: e22b c2be c7b6 d33c 7b7a e1bd d9dd fdbd
00000280: c4b3 8c3e 5f5f 74be 3c80 2e3f e631 8b3e
00000290: fc1c 933e b4a2 8bbe a876 853f 0345 90bd
000002a0: 7fcf 21be 73b1 203e 1464 6a3e 57e1 16bf
000002b0: 2453 5ebd ab0e 03bf a663 903e 3b8c cbbe
000002c0: 3889 1e3f b846 e7bd 76f0 a3be c713 d4be
000002d0: f77d 94bd 4a4e 4bbe c6a9 713d 7b8d 8fbe
000002e0: 2710 733e b40a 38bf 358c 2ebd 00f7 2abf
000002f0: 4156 d23e 1650 22bd db82 a33e b688 053f
00000300: d02f 783e 17db cbbe ef5d 963e 5463 eebe
00000310: ee3a 483e fceb a8be fc52 90bf 84d2 00bf
00000320: 06d5 43bf 10e7 21be 7851 043e 8d63 54be
00000330: 7637 2e3e 09f1 9f3e 545a 5fbe 1775 60bf
00000340: a7ae 48be 4e2f b7bd 1575 67bd eb36 153f
00000350: 4bf5 5dbd 6ac1 8f3e db43 78be 7d23 56bf
00000360: 252d 03bf 8aec d1be b791 083e aab9 8c3e
00000370: e040 2cbe 7cff 30be 74e2 ad3d 67ac b4bf
00000380: 067d 09be 461d 843e 0f34 5fbe 613d b33e
00000390: 8d7d 723d c2e6 e63d a25f d9be d6ae 56be
000003a0: 8326 023f ad3a 12be 3f5e 9d3d 65df 5f3d
000003b0: d2cb 67bf 8990 093e b283 d1bd a8aa 18bf
000003c0: a96b 1cbf bc62 18be d5e2 9e3e 847a 693e
000003d0: f952 8ebd 5a72 0fbc 71d3 37be a0ea 23be
000003e0: 3582 52bf 2d4f 323e 67a0 75bd dfb7 3c3e
000003f0: bcf7 953e 2fdb 31bf 8774 2cbe 2f9b b03e

fc2.bias f4 [5]
0.16637366 -0.015457772 0.0056666154 -0.027255721 -0.13323927
00000000: db5d 2a3e 9842 7dbc 04af b93b 6447 dfbc
00000010: e06f 08be
