exp-9/experiment-9-10k.pth (torch_old, 3503 bytes, 4 tensors)

fc1.weight f4 [32, 15]
000000 97 40 f5 bd 42 08 01 ba 83 7e 51 3e fa 1f bc bc
       -0.1197521 -0.000492219 0.20458417 -0.022964466
000010 f0 c7 3c 3e 76 89 c3 3d 9d ed e9 3d 22 e2 52 bd
       0.18435645 0.09547703 0.11422274 -0.05148519
000020 f1 4d f4 3d 24 a4 f0 bf 65 94 33 be ff f2 2f 3e
       0.11928929 -1.8800092 -0.17537077 0.1718254
000030 a4 eb 76 bd 4d cd 0f bd b8 c0 76 3e 6f 70 17 3d
       -0.06028332 -0.0351079 0.24096954 0.03697246
000040 03 b7 29 be 2a 95 60 3d 97 fe 85 3d 04 48 2e 3e
       -0.1657372 0.054829754 0.065427 0.1701966
000050 7e 07 1e 3e 86 f4 5b bd b8 07 90 3d 0d 45 8b 3c
       0.15432546 -0.053699993 0.07032722 0.0170007
000060 a4 01 1c bf 8a 8c fe bf 21 ab aa 3e 95 be 94 bd
       -0.60940003 -1.9886639 0.33333686 -0.07262913
000070 62 61 67 3d 87 bc f8 3d 8f d1 6c be d0 9d ca bd
       0.056489356 0.12145334 -0.23126815 -0.098933816
000080 8c 60 c2 bc e6 35 96 be 18 c3 0e 3e 2f bd 5f be
       -0.023727678 -0.29337996 0.1394161 -0.21849512
000090 9b 93 c2 3d e5 0e 41 be 00 6e 09 3e a4 6f 0f be
       0.0950081 -0.18853338 0.13420868 -0.14007431
0000a0 44 50 07 3e 13 fe 0f bf 13 b1 48 be b8 aa 25 be
       0.13214213 -0.5624706 -0.19598798 -0.16178405
0000b0 32 4b 4e be 68 90 60 3e 89 f9 7c be 1b 63 cc 3d
       -0.20145872 0.21930087 -0.24704565 0.0997984
0000c0 2b ae 9f 3c ac 18 1e bd 3d e5 6b 3d c9 cb 92 3c
       0.01949223 -0.038597748 0.057591666 0.017919438
0000d0 de 84 fd bc a6 c7 4a 3e 51 4e a4 3f 3b 9e e5 bf
       -0.030947145 0.19802722 1.28364 -1.7938913
0000e0 18 98 65 3d a4 ef 91 3d 51 7c f4 bd 68 55 3b bd
       0.05605325 0.07125786 -0.11937774 -0.045735747
0000f0 da 2c a5 3c 5b 16 2c bb ea 96 1a 3d 94 56 86 3d
       0.020162988 -0.0026258442 0.03774158 0.06559482
000100 0e 1c 4a bd 3f f3 7a 3d 2e c3 ea 3c f9 e2 31 bd
       -0.04934316 0.061267134 0.028657522 -0.04342935
000110 6f 42 7c 3d 61 3a 02 c0 bb 76 a2 bf 60 e7 f8 3e
       0.061586794 -2.0348132 -1.2692484 0.48614025
000120 f7 8e 12 3e ab 84 2a 3c c9 87 06 3e 23 cd e8 bd
       0.1431235 0.010407607 0.13137735 -0.11367252
000130 51 7b 45 be 5c 57 26 3e 3c 53 9f bc 0c 41 cd 3d
       -0.19285323 0.16244262 -0.019448869 0.10022172
000140 e6 01 29 3e ff 26 8e bc 28 34 55 3e ff 71 cf bc
       0.1650463 -0.01735258 0.20820677 -0.025322912
000150 44 e7 b7 bf 63 24 ba 3f a4 f4 7b 3e eb 08 c8 3d
       -1.4367452 1.4542354 0.24605042 0.09767326
000160 b0 e9 34 bd 9f ed d5 3d 6a 36 75 3d 9f 7c 80 be
       -0.044168174 0.10445713 0.059866346 -0.25095078
000170 4f 01 ef bb d8 46 8b be 96 88 3a bd 9e 36 2b 3d
       -0.007293857 -0.27202487 -0.045540415 0.041800134
000180 e3 b1 ac bc a4 0d b5 bd 70 c8 b2 3c cf 45 c2 bf
       -0.021080917 -0.08840492 0.021824092 -1.5177554
000190 d0 f4 6a bf fa e6 f6 3e 9f d7 e5 3d 88 32 ba 3d
       -0.91779804 0.48223096 0.11222767 0.09091669
0001a0 18 59 d5 3d 44 5e e7 3d d2 e3 0b bd 9c dc 94 3d
       0.10417384 0.112972766 -0.034152813 0.072686404
0001b0 27 59 54 be 06 1a 80 3d 20 6f 86 3e 4f 43 51 3d
       -0.20737134 0.062549636 0.26256657 0.05108958
0001c0 99 90 e8 bc 0b 10 61 3e 2d 5d ab bf e0 4e f7 3f
       -0.028389262 0.21978776 -1.338781 1.9320946
0001d0 bf 6a a8 3e 75 87 84 3b e8 7d 32 bd 26 ed 1e 3d
       0.3289394 0.004044468 -0.043577105 0.03880038
0001e0 32 ef 54 3e a3 aa 3e be 91 d9 57 3e 56 84 76 3e
       0.20794371 -0.1861978 0.21079089 0.2407392
0001f0 fb ed 25 3e f3 b3 96 be c5 d3 c8 bd 43 83 37 bc
       0.16204064 -0.29434165 -0.09806017 -0.011200729
000200 f0 70 b0 3d 80 3d 9d 3f 15 12 08 3f 5b bb c9 bd
       0.08615291 1.2284393 0.5315259 -0.09850188
000210 c9 42 d4 bd d1 83 0b be 13 84 b1 3d a9 38 68 3e
       -0.10364301 -0.13624503 0.08667769 0.22677864
000220 22 d1 cf bd d6 70 95 bd 95 37 63 3d 56 08 1d 3e
       -0.10147311 -0.07296912 0.05547293 0.15335211
000230 6a a3 62 3e 28 f7 5f be 93 69 12 be a4 15 9e 3e
       0.2213265 -0.21871626 -0.14298086 0.30875885
000240 ae a0 bd 3f 07 43 a9 3f 15 80 2e 3d 07 8f 62 be
       1.481466 1.322358 0.042602617 -0.22124873
000250 f1 a4 85 bd c0 d9 55 3d 84 95 99 3e 1d 1d a9 3d
       -0.06525601 0.052209616 0.29996884 0.08257506
000260 e3 df 9f bd dc a8 24 bd 0f 5a c5 bd d5 d2 4e bd
       -0.07806375 -0.0402001 -0.09636318 -0.050494034
000270 d8 cf dc 3d 77 d8 db bd 26 f2 4a 3e 6a 1b b7 3f
       0.107818305 -0.10734647 0.19818935 1.4305241
000280 c5 9a 37 bf 76 95 c1 3d 37 18 68 bd 0b c4 64 3e
       -0.71720535 0.094523355 -0.056663718 0.2234041
000290 8e f4 c2 3d e7 94 84 3c 72 e4 ab bc ec 4a d6 3d
       0.09519301 0.016184283 -0.020982955 0.10463509
0002a0 5f 06 02 be d4 21 35 3e 4f 34 1e 3e 92 45 0a 3c
       -0.12697743 0.17688686 0.15449642 0.008439438
0002b0 18 1d 5e 3d f0 ba 4c 3e e2 9a 27 3e 99 84 06 c0
       0.054226965 0.19993186 0.16367677 -2.101843
0002c0 4e b4 4d 3e 3f 1f 4a 3c 73 16 fa 3c 65 8f a2 3d
       0.20088312 0.012336551 0.030528283 0.079375066
0002d0 ef 27 65 3d 92 ab e7 3c 37 b9 0d 3e 4a 94 fa bd
       0.055946287 0.028280053 0.13840185 -0.12235315
0002e0 66 76 cf bd e9 1f dd 3d 0c f4 26 3d 00 01 80 3d
       -0.101300046 0.10797102 0.040760085 0.06250191
0002f0 bf 8c 36 3e cd aa d9 3f 9d 1a cb bf fa f2 9e bc
       0.17827128 1.7005249 -1.5867497 -0.01940297
000300 d9 12 ee bd b8 5a 86 bc 31 c1 7a 3e a6 c4 a7 3d
       -0.11624689 -0.01640068 0.24487759 0.081918046
000310 30 ac 6c bc ba a7 97 3e 2c 6f c8 3d 11 cc d5 bd
       -0.01444535 0.29620153 0.09786829 -0.10439313
000320 a3 e5 3c 3e d6 d1 65 3e e0 4a 89 bd a8 a5 dc bd
       0.18446974 0.22443327 -0.067037344 -0.10773784
000330 d9 e5 c9 3f 13 61 9f 3f cf b6 78 3c 56 ed 03 3d
       1.5773269 1.24515 0.015180304 0.032208763
000340 c4 47 e0 bc 7d ed 94 3e 08 14 15 3d 00 77 45 bc
       -0.02737797 0.2908744 0.036396056 -0.012052298
000350 5b d4 22 3e 84 29 c5 bc 7a 5e fe bc 75 15 32 3e
       0.1590132 -0.024067648 -0.03105091 0.17390998
000360 d8 e4 25 3d d7 82 16 bd 50 dc 0e 3e bb 3c 90 3f
       0.040501446 -0.036745872 0.1395123 1.1268533
000370 c9 56 e1 3f 98 96 cd 3e 5d 87 fa 3d 6e 94 12 3e
       1.760461 0.40153956 0.1223285 0.14314434
000380 db b6 15 be ea dd 30 3d 34 6c 0d bd 83 2d d2 3d
       -0.14620535 0.043180384 -0.03452702 0.10262587
000390 48 64 34 be a6 27 3c be 18 0d ed bd bc 9a 1d 38
       -0.1761638 -0.183745 -0.11574763 3.7575825e-05
0003a0 3f 38 f1 3d 93 ed f6 3d 3a d0 ab bf c9 07 b1 bf
       0.11778306 0.120570324 -1.3422921 -1.3830501
0003b0 dd 64 fd 3e c7 6f 66 3e d5 bf b2 bd 2c c6 28 3e
       0.49491015 0.22503577 -0.08727995 0.16481847
0003c0 24 9d 8d bc 75 9a aa 3e 0c f7 eb bd 68 f3 a4 3d
       -0.017286845 0.33320966 -0.1152173 0.080542386
0003d0 03 fd 37 3e a3 36 87 3d d5 61 6e bc 30 25 29 be
       0.1796761 0.06602218 -0.014549692 -0.16518092
0003e0 b5 09 fa 3d 60 c3 02 be 57 50 ce 3f b6 dd 4e 3e
       0.12208883 -0.12769842 1.6118268 0.20201764
0003f0 a5 04 3a 3b 8b 3d bb bc 5c ff bc 3d 07 c8 68 bd
       0.0028384116 -0.022856494 0.092283934 -0.056831386

fc1.bias f4 [32]
000000 c6 21 bf 3c de df e2 3e 70 37 78 be df 47 f0 3e
       0.023331534 0.44311422 -0.24239898 0.46929833
000010 25 5d 9d 3e 54 d5 9f 3e 69 74 2c 3d fb 65 2e 3e
       0.30735126 0.31217444 0.042103205 0.1703109
000020 2a 5e 10 3e d4 47 17 3f 44 50 b8 3e 93 d3 e6 3e
       0.1409842 0.59093976 0.35998738 0.45083293
000030 82 53 9d 3e 0b 54 89 3e 00 af b1 3e 01 dd 95 3e
       0.30727774 0.26821932 0.34703827 0.29270175
000040 63 43 a2 3d 28 2a 23 3f 69 a7 a9 3e 31 b8 97 3e
       0.07923009 0.637362 0.33135536 0.29632714
000050 23 6c 3c 3e 5b 88 3f 3e 21 b0 0b bd 46 a5 19 be
       0.18400626 0.18704359 -0.034103516 -0.15004453
000060 0a ed df 3e 3f b2 84 3d a6 55 13 3f 03 03 8b 3e
       0.43735534 0.0647931 0.57552564 0.27150735
000070 09 7b e9 3d 33 ca b7 3e 46 d2 3b be ad fd 27 3d
       0.1140042 0.35896453 -0.18341932 0.04101341

fc2.weight f4 [5, 32]
000000 dc f3 fe be ef d1 5a bd b7 6d 87 be 4b a4 4e 3e
       -0.49795425 -0.053422865 -0.26450893 0.2017986
000010 55 22 1b bf 2f 07 3b be 70 c4 e5 be 57 53 2a be
       -0.6059926 -0.18264459 -0.44876432 -0.16633354
000020 2f 99 8c 3e bb 8c ea 3e ac da bf 3e d4 86 b9 3d
       0.2746062 0.45810494 0.3747152 0.090589195
000030 30 09 c5 3e 57 2b 57 3e eb 04 a7 3e d6 00 48 be
       0.38483572 0.21012627 0.3262094 -0.19531569
000040 01 b2 fb bd 22 d9 ad 3e 6c f8 e7 be 2e 8b 9d 3e
       -0.12289811 0.33954722 -0.45306718 0.30770248
000050 f0 76 b3 3c 53 ae 1c bd a5 bc 4e be 38 14 93 3e
       0.0219073 -0.038252186 -0.2018915 0.28726363
000060 0d ab ab 3e 5f 0c 45 be 7f b1 e9 3e 7e 7b 9a be
       0.3352894 -0.19243 0.4564323 -0.30172342
000070 16 77 e2 3d 2e e1 5e 3e c3 7c a7 bc 85 c5 ac be
       0.1105787 0.21765587 -0.020445233 -0.33744445
000080 f3 4c 8e 3e c9 2d d8 3d 20 29 01 be 4b 8f f9 be
       0.27793083 0.10555608 -0.12613344 -0.48742136
000090 8a bc 27 3f 92 97 c7 3e ed 49 dc 3e c7 f1 81 3e
       0.6552206 0.38982826 0.4302515 0.25379774
0000a0 6f 88 09 be 11 e3 24 be 4b 2b 67 be 7a 88 7d bc
       -0.13430952 -0.16102244 -0.22575109 -0.015474433
0000b0 43 42 ae be 77 f9 e1 be bc 94 a1 be d3 47 94 3e
       -0.3403493 -0.4413564 -0.31558788 0.28961048
0000c0 a7 ee de bd 2b 25 a4 be 60 ef d3 3e 91 5b 84 be
       -0.10885363 -0.32059607 0.41393566 -0.2585111
0000d0 13 98 07 3e 74 04 6a be 25 d2 3a 3e 83 32 f6 bd
       0.13241605 -0.22853261 0.18244226 -0.12021353
0000e0 05 5d a2 be 54 9b bc 3e cf 3c 79 be ce ad 14 3d
       -0.31711593 0.36837256 -0.24339603 0.036298566
0000f0 9b 2c dc 3d 08 8f 65 bd 59 fb 47 3d c6 23 64 3e
       0.10750695 -0.05604461 0.04882369 0.22279271
000100 73 3c f7 bd 4f 4b 0d bf 73 cd 2c 3e 6c 39 89 be
       -0.12072077 -0.55193037 0.16875248 -0.26801622
000110 9e a6 ac be ba 4e d8 3e 55 1b dc be 47 d7 dd 3e
       -0.3372087 0.42247564 -0.42989603 0.43328306
000120 62 d7 b4 3d 5a 51 73 3e d3 81 d6 bd 18 ce 15 bf
       0.088301435 0.23761502 -0.10473981 -0.585176
000130 bd f6 c1 be 9e 7b 2a 3e 01 1a 14 3f 4c 1d 30 be
       -0.3788356 0.16648719 0.5785218 -0.17198676
000140 9b da c7 3e 7b c0 bb be 43 d5 dd 3e 62 3e f2 3d
       0.3903397 -0.36670288 0.43326768 0.11828305
000150 0a 60 c6 3e f0 2b 12 bf 6d e1 7c 3e fa 55 52 3d
       0.38745147 -0.57098293 0.24695368 0.051351525
000160 1a 84 a7 be 26 5b 18 be fb c7 1a 3e 88 10 a6 3d
       -0.32717973 -0.1487852 0.15115349 0.08108622
000170 c6 a5 78 be 0c 5c c3 3e 5f 98 71 bd ad 3c 34 be
       -0.24281988 0.38156164 -0.058983203 -0.17601271
000180 90 01 50 bd b7 62 0d 3f 9b d0 40 bc f8 13 b5 3e
       -0.05078274 0.5522875 -0.011768485 0.35366797
000190 73 f0 9a 3e 08 a5 cb be e5 9a 61 3e d5 b9 94 be
       0.30261573 -0.39774346 0.22031744 -0.2904803
0001a0 13 13 66 be d1 24 d3 be b1 fd 11 3e ea 23 00 3f
       -0.22468214 -0.41239026 0.14256932 0.500548
0001b0 c4 d2 08 3e 74 18 38 be ac 92 f5 be 26 2d b5 3e
       0.1336165 -0.17978078 -0.47963464 0.35386008
0001c0 c4 e5 89 be 17 ee 6c 3d bc 45 a1 be aa e6 22 be
       -0.2693311 0.057844248 -0.31498516 -0.15908304
0001d0 95 f6 b3 be 8b e4 67 3e 8f 09 2f be 9a 8d b8 bd
       -0.35149065 0.22645776 -0.1709349 -0.09011383
0001e0 42 36 16 3f 85 05 b0 bd 0d 77 3a bc ab f9 19 3e
       0.5867654 -0.08594803 -0.011380923 0.15036647
0001f0 57 6e 51 3e 16 fc bd be fe 74 c9 3c 88 15 bf 3e
       0.20452248 -0.3710639 0.024591919 0.37321115
000200 ac e3 96 3d 73 85 d8 bd 8f 68 31 3e 13 2e 36 3e
       0.07367644 -0.105723284 0.17325042 0.17791013
000210 b1 a3 30 be 0a 9a bc 3d e4 50 de 3c 3a a8 7b 3d
       -0.17249943 0.09209068 0.027138181 0.06143973
000220 b4 5b 7b 3e b0 0c 98 bd 3c b3 3b 3e dc 44 4f bc
       0.245467 -0.07424295 0.18330091 -0.012650695
000230 5d ed 19 3e a5 2e 14 3e ef ae d8 bd 5e cd d3 bd
       0.15031953 0.14470918 -0.10580241 -0.10341905
000240 d7 0d 3a 3a 3a 6a 08 be 2a 8e 42 3d 9e c8 67 be
       0.0007097399 -0.13321772 0.04749886 -0.22635123
000250 81 fc 1b 3e ec 60 d2 bd 70 15 d7 3d 88 af 70 3e
       0.15233041 -0.10272393 0.10502136 0.2350446
000260 1d 39 62 3e 0b 7e 71 3e b9 9f 95 bd 19 bb d5 bd
       0.220921 0.23583238 -0.07305855 -0.10436077
000270 8b 25 67 3e f7 17 6a bc 80 d6 86 3e a0 3d cf bd
       0.22572915 -0.01428794 0.26335526 -0.10119176

fc2.bias f4 [5]
000000 f6 68 98 3e 4a 4f 36 3e 98 ac ec 3c 25 43 5d bc
       0.2976758 0.17803684 0.028890893 -0.013504778
000010 f7 f1 53 be
       -0.20697771
