exp-5/experiment-5-5k.pth (torch_old, 1386 bytes, 4 tensors)

fc1.weight f4 [16, 4]
-0.30253777 -0.23104003 0.2443792 -0.3862285 -1.0114586 -1.6601359 -0.08897007 -0.15864797
-1.22462 0.10024673 0.4541257 -0.10522805 1.0943998 1.4000543 0.075258136 0.07110627
-0.90636086 -0.07268277 -0.06588165 -0.06476482 1.346115 0.09702375 -0.32155162 0.30842626
-1.0577866 1.3000082 -0.13502179 -0.16310813 -1.4505451 -0.26856664 -0.15853052 -0.0879982
-0.1602277 0.11665684 -0.1872881 0.25663862 -0.34917697 0.9302565 -0.41328123 0.42879373
1.2951202 -1.1759073 -0.22620979 0.18047927 -0.9512386 -0.11263069 0.47960374 0.35613173
1.681073 -0.9224194 -0.07712905 -0.31392556 0.7217507 -0.01366096 0.44869804 -0.18918718
-1.2641505 -0.16266942 -0.5450226 0.26467708 1.3085138 -1.5436145 0.20287497 -0.035117555
00000000: 3be6 9abe c295 6cbe 8a3e 7a3e bebf c5be
00000010: 7a77 81bf 557f d4bf f135 b6bd 9d74 22be
00000020: 59c0 9cbf 284e cd3d 2a83 e83e ce81 d7bd
00000030: 4b15 8c3f fb34 b33f f020 9a3d 2aa0 913d
00000040: 4407 68bf b4da 94bd f5ec 86bd 6ba3 84bd
00000050: 7f4d ac3f 63b4 c63d 6aa2 a4be 0cea 9d3e
00000060: 8d65 87bf ab66 a63f 2743 0abe d105 27be
00000070: 76ab b9bf 9181 89be d355 22be 6638 b4bd
00000080: bb12 24be c8e9 ee3d 74c8 3fbe 2366 833e
00000090: 53c7 b2be 4a25 6e3f 9999 d3be da8a db3e
000000a0: 80c6 a53f 2184 96bf 8aa3 67be 8fcf 383e
000000b0: 5f84 73bf ebaa e6bd 9f8e f53e e656 b63e
000000c0: 662d d73f ae23 6cbf d6f5 9dbd daba a0be
000000d0: a7c4 383f 38d2 5fbc c0bb e53e 49ba 41be
000000e0: afcf a1bf d092 26be 9a86 0bbf c183 873e
000000f0: 617d a73f 2995 c5bf 75be 4f3e 6dd7 0fbd

fc1.bias f4 [16]
0.37137118 0.7312758 -0.11069069 0.9795323 0.2576656 -0.32150126 0.8183551 0.24079253
-0.53428644 0.42715308 -0.18973266 -0.4795881 0.5892791 0.024094403 0.5414573 0.8973952
00000000: 5d24 be3e e434 3b3f cdb1 e2bd a1c2 7a3f
00000010: bfec 833e d09b a4be b87f 513f 5192 763e
00000020: ffc6 08bf cfb3 da3e 4749 42be 928c f5be
00000030: ffda 163f a061 c53c f29c 0a3f b1bb 653f

fc2.weight f4 [4, 16]
-0.33716708 -0.92014825 -0.10535689 0.24993207 -0.3445074 0.6214847 -0.68356556 -0.92749757
0.002518311 -0.17835982 0.57159585 -0.43473083 0.5851533 0.41561586 -0.6805087 0.3384271
-0.33296964 0.286503 0.51589125 -0.9139582 0.45090464 -0.6261232 0.010881197 0.92718565
-0.15864554 0.23783177 -0.77111834 0.3850111 -0.29389456 -0.46433645 0.5751967 -0.8704466
0.039662566 -1.5703686 -0.07561482 0.55658925 -0.18053003 -0.15529826 0.36778986 -0.7226867
-0.08537631 0.6745528 -0.9830381 0.012847348 -0.56355494 0.029195981 0.27197525 -0.6473707
0.42256823 0.84686756 -0.45388904 -1.2540784 -0.11862718 -0.05751645 -0.549545 -0.1393404
0.10528918 -0.3296408 0.38058028 0.040562667 0.2139691 -0.31332812 0.041827396 0.43807814
00000000: 2aa1 acbe d68e 6bbf 5ac5 d7bd 31ee 7f3e
00000010: 4663 b0be 9f19 1f3f 27fe 2ebf 7b70 6dbf
00000020: 3f0a 253b f5a3 36be 1b54 123f 0a95 debe
00000030: 9bcc 153f 9acb d43e d135 2ebf 5146 ad3e
00000040: ff7a aabe 85b0 923e 7311 043f 2af9 69bf
00000050: f9dc e63e 9c49 20bf 0c47 323c 0a5c 6d3f
00000060: fa73 22be 2c8a 733e 0368 45bf 2d20 c53e
00000070: 5979 96be 82bd edbe 1740 133f 97d5 5ebf
00000080: 3775 223d d701 c9bf f1db 9abd a27c 0e3f
00000090: dddc 38be 8206 1fbe f44e bc3e ff01 39bf
000000a0: c6d9 aebd 7eaf 2c3f 63a8 7bbf af7d 523c
000000b0: 2345 10bf 692c ef3c 5740 8b3e 16ba 25bf
000000c0: dd5a d83e 50cc 583f 2564 e8be a485 a0bf
000000d0: cff2 f2bd 5e96 6bbd fbae 0cbf 40af 0ebe
000000e0: dba1 d73d aec6 a8be 6bdb c23e 0a25 263d
000000f0: b71a 5b3e 8b6c a0be 3453 2b3d c74b e03e

fc2.bias f4 [4]
0.0053042863 0.028725313 0.27398512 -0.092541985
00000000: 94cf ad3b 5951 eb3c c747 8c3e a786 bdbd
