exp-4/experiment-4-5k.pth (torch_old, 1626 bytes, 4 tensors)

fc1.weight f4 [16, 8]
0	0x3ce77ba2	0.028257195
1	0xbe1981f1	-0.14990975
2	0x3ee69dd5	0.4504229
3	0x3f32709c	0.6970308
4	0x3f749a0c	0.95547557
5	0x3d6d69e5	0.057962317
6	0x3f8a9577	1.0826863
7	0x3f0b9e35	0.5453828
8	0x3e39b965	0.18137129
9	0x3dd83b27	0.105581574
10	0xbf42f52d	-0.7615536
11	0xbf43642e	-0.7632474
12	0xbf26a3c7	-0.65093654
13	0xbf1cb8f2	-0.61219704
14	0xbf968e17	-1.1762112
15	0xbf682c47	-0.9069256
16	0xbd8a40cd	-0.06750641
17	0x3dd3483e	0.103165135
18	0x3f4aadd3	0.79171485
19	0xbf02f318	-0.5115218
20	0x3f5f3775	0.87193996
21	0xbeef14d0	-0.46695566
22	0x3f2fcb47	0.6866955
23	0xbf72c17b	-0.9482648
24	0xbda593fe	-0.08084868
25	0x3d7a88da	0.061165668
26	0x3eacf67c	0.33781803
27	0x3ef96610	0.4871068
28	0x3e9c4562	0.30521685
29	0x3f41414c	0.7549026
30	0x3eee6a5a	0.46565515
31	0x3f67ba5f	0.90518755
32	0xbdc53624	-0.09629467
33	0xbd6bd648	-0.0575774
34	0x3f205e65	0.62644035
35	0x3eacb503	0.3373185
36	0x3edb3ae0	0.42818356
37	0x3f2f0e32	0.68381035
38	0x3f309865	0.68982536
39	0x3f8e243a	1.1104805
40	0xbdfbb52e	-0.12290417
41	0x3d8998de	0.0671861
42	0xbeed94da	-0.46402627
43	0xbd977c55	-0.07396761
44	0x3f63197d	0.8871077
45	0xbd85c6f7	-0.0653209
46	0x3f669079	0.900642
47	0xbd3eb8b5	-0.04656287
48	0x3ca58214	0.020203628
49	0x3e8da3cf	0.2766404
50	0xbf36c390	-0.71392155
51	0x3ed83f19	0.4223564
52	0xbf063b64	-0.5243437
53	0x3edf78f6	0.43646973
54	0xbe865486	-0.2623636
55	0x3f58a73c	0.8463018
56	0x3e3dc3e0	0.18531752
57	0xbea771de	-0.3270406
58	0xbe3c7621	-0.18404438
59	0xbf7590a1	-0.9592381
60	0xbe600f35	-0.21880801
61	0x3dcdc9c8	0.10048252
62	0xbdd3045b	-0.10303565
63	0x3ee67b42	0.45015913
64	0x3e8c2ff3	0.27380332
65	0xbd1cf439	-0.038318846
66	0xbf684182	-0.90724957
67	0x3e8eb9cf	0.27876136
68	0xbf3f8e3e	-0.7482642
69	0xbea0a932	-0.31379086
70	0xbf2de364	-0.67925096
71	0xbef316e8	-0.47478414
72	0xbd709a95	-0.05874117
73	0xbe346e43	-0.17620187
74	0x3f20f23f	0.6286964
75	0x3cd2b61c	0.025721602
76	0x3f6a81d2	0.9160434
77	0x3a6a0e62	0.0008928535
78	0x3f45f14c	0.77321315
79	0xbd787974	-0.0606627
80	0xbd28109a	-0.041031457
81	0x3c57b261	0.013165087
82	0x3efcd979	0.49384668
83	0xbf086a15	-0.5328687
84	0x3efb6270	0.4909854
85	0xbf1f38fc	-0.62196326
86	0x3f59c9a9	0.85073334
87	0xbf981374	-1.1880937
88	0xbe8240e4	-0.25440133
89	0xbe6905b4	-0.22756082
90	0xbf23b68d	-0.63950425
91	0x3e7ff4c4	0.24995714
92	0xbf55617d	-0.8335188
93	0x3df5eb9a	0.12007828
94	0xbf2b50c7	-0.6692013
95	0x3e5210f7	0.20514284
96	0x3dc03e9a	0.0938694
97	0x3e2019a8	0.15634787
98	0xbd06bf8d	-0.03289752
99	0xbeaf4eaf	-0.34239718
100	0x3eaaf53b	0.3339022
101	0xbed37bda	-0.4130543
102	0x3e3cfc02	0.18455508
103	0xbf0c943a	-0.54913676
104	0xbe2e7432	-0.17036512
105	0x3e51bf22	0.20483068
106	0x3e7df564	0.2480064
107	0xbef17796	-0.4716155
108	0x3cbce046	0.02305616
109	0xbf00262f	-0.50058264
110	0x3e04597d	0.12924762
111	0xbf6d4293	-0.9267971
112	0x3e7d8b9a	0.24760285
113	0xbdbf24eb	-0.093332134
114	0xbe502d38	-0.2032975
115	0x3e281e97	0.16417919
116	0x3e393c9a	0.18089524
117	0xbe1fbef8	-0.15600193
118	0x3e77be76	0.24193749
119	0xbe5581d2	-0.20850304
120	0x3ef2d091	0.4742475
121	0x3dd502e9	0.10400946
122	0x3f3aaee8	0.72923136
123	0x3ed4a2a7	0.41530344
124	0xbc9b8567	-0.01898451
125	0x3ca42d98	0.020041272
126	0xbf2f509c	-0.68482375
127	0x3f62b102	0.8855134

fc1.bias f4 [16]
0	0x3f0de1c7	0.55422634
1	0x3f47eb5e	0.78093517
2	0x3f38bd22	0.72163594
3	0x3f39f5aa	0.7264048
4	0x3f08f76c	0.53502536
5	0xbaa162af	-0.0012312735
6	0x3f3367b0	0.7008009
7	0xba9b603f	-0.0011854245
8	0x3f22392a	0.63368475
9	0x3e18c1fb	0.14917748
10	0x3f03e9e9	0.51528794
11	0x3f65916f	0.8967504
12	0x3ea3570f	0.31902358
13	0x3e822667	0.25419924
14	0xbed4baa6	-0.4154865
15	0x3f06e45d	0.52692205

fc2.weight f4 [4, 16]
0	0x3f340efc	0.70335364
1	0xbf504821	-0.8136006
2	0x3f240c73	0.64081496
3	0x3e1df62e	0.15425941
4	0x3e434f54	0.1907323
5	0x3ef43e38	0.4770372
6	0xbf3678bd	-0.7127798
7	0xbf46de25	-0.77682716
8	0xbf429704	-0.7601168
9	0x3f04310d	0.51637346
10	0x3e95584e	0.29168934
11	0xbf11b648	-0.56918764
12	0xbd99c94d	-0.07509098
13	0xbe7727ca	-0.24136272
14	0xbddc6c63	-0.107628606
15	0x3e2e3332	0.17011717
16	0xbf5fd76e	-0.87438095
17	0x3f22c013	0.6357433
18	0xbfbb1c2b	-1.4617971
19	0xbe9dedbf	-0.30845448
20	0xbf88f2e2	-1.0699122
21	0xbdf5dceb	-0.120050274
22	0x3dfefb7c	0.124503106
23	0xbdabceaf	-0.08389031
24	0x3f2a1a57	0.6644644
25	0xbeb1615e	-0.34644598
26	0xbf601912	-0.87538254
27	0x3f270bfc	0.6525266
28	0xbecaf811	-0.39642385
29	0xbea4a4b8	-0.3215692
30	0xbe65307b	-0.22381775
31	0x3ea3b4fd	0.3197402
32	0x3e9442c5	0.2895719
33	0xbf804cbf	-1.0023421
34	0xbf35ee9e	-0.71067226
35	0x3f160960	0.58608055
36	0x3f35a34a	0.70952284
37	0xbf2beaf8	-0.6715541
38	0x3ee2e39b	0.44314274
39	0x3e5aeee3	0.2138019
40	0xbcd7e88c	-0.026356004
41	0xbe6a686e	-0.228914
42	0xbfb1790f	-1.3865069
43	0x3e5e186e	0.21689007
44	0xbe7bc01b	-0.24585001
45	0xbf2e2374	-0.6802285
46	0xbd12b6fd	-0.035819042
47	0x3e7ca340	0.2467165
48	0xbf1db676	-0.6160654
49	0x3e637d49	0.22215761
50	0x3ed892ac	0.42299402
51	0xbf3d4106	-0.7392734
52	0xbf2083ab	-0.6270091
53	0xbea2d03f	-0.31799504
54	0xbf2bf5c1	-0.67171866
55	0x3e165e24	0.1468435
56	0xbc750ea1	-0.014957101
57	0xbea0f986	-0.3144037
58	0x3f4614ec	0.77375674
59	0xbe024f50	-0.12725568
60	0x3ef98d17	0.48740456
61	0x3f2a4dac	0.6652477
62	0x3e4b8b51	0.19877364
63	0xbec582a7	-0.38576242

fc2.bias f4 [4]
0	0xbe8b1fa9	-0.27172592
1	0xbbaa1f87	-0.0051917466
2	0xbbe35af8	-0.0069383346
3	0xbbe6fc27	-0.007049102
